actor_checkpoint_2021-11-08T21 17 05.330083.pth (torch_old, 26962 bytes, 8 tensors)

fully_connected_layers.0.weight f4 [64, 24]
000000 17 81 e8 bb 69 b6 2e be 50 9a 65 3d ba 5c 32 3c
       -0.007095467 -0.17061771 0.056055367 0.010886366
000010 eb 00 05 be 03 6c f7 bd 04 9d 71 3d 22 ee 0d 3e
       -0.12988631 -0.120811485 0.058987632 0.13860372
000020 74 da f8 bd 40 5f fd bd eb c0 29 3d d5 8b b9 3c
       -0.121510416 -0.12371683 0.041443747 0.022649685
000030 4e 11 13 be 08 5e 43 bb 03 6d cf 3c 42 08 01 3e
       -0.1436207 -0.0029810686 0.025320536 0.12600806
000040 3a b2 40 bd 91 0b 16 bd 73 30 37 bc 28 53 cb bd
       -0.04704497 -0.036632124 -0.011180985 -0.0992797
000050 c6 a7 5b be fa 5f 02 bd 90 15 d1 3d 8a a6 ab 3d
       -0.21450719 -0.03182981 0.10209191 0.08381374
000060 cc b7 fc 3e 31 00 3a be f2 8f 7b 3d 8f eb 7d 3e
       0.49358976 -0.18164136 0.061416574 0.2479689
000070 e8 62 8f 3e a6 dc 1c be e8 37 b2 3c 86 dd bb 3d
       0.28005147 -0.15318546 0.021755174 0.091731116
000080 98 12 64 3e 9c d2 b6 bd 46 9c 1b 3d b7 42 57 bd
       0.22272718 -0.08926889 0.03799083 -0.05255386
000090 4f a4 03 3e b6 60 c6 bd 6c c3 03 3c bc 15 37 3c
       0.12855648 -0.09686415 0.008042198 0.0111746155
0000a0 13 98 1e 3d d2 79 ce bd 67 42 0e 3d 2f a7 09 3e
       0.038719248 -0.10081829 0.034731295 0.13442682
0000b0 97 d7 38 3e 0b 5f 82 be a2 de 31 bd d0 7e 76 bd
       0.18050991 -0.25463137 -0.04342521 -0.06017953
0000c0 21 dc 92 3c f3 b5 81 be 64 68 ab bb 73 96 ac bd
       0.017927231 -0.2533413 -0.00523095 -0.084271334
0000d0 8c 78 52 be 58 07 60 be 01 54 d7 3c 32 6c 51 bd
       -0.20553797 -0.21877801 0.026285173 -0.051128574
0000e0 1e fb 46 bd d6 9b 3c be 9c 72 64 3a 89 de 7c bd
       -0.048579328 -0.18418822 0.0008714588 -0.061735664
0000f0 51 97 6a be 8a 1a 43 bc f6 b7 30 3b 93 87 45 3d
       -0.22909285 -0.011908183 0.0026965118 0.048224997
000100 7c 21 bc 3d 7a f3 f4 bd 92 9e 64 bd 03 80 12 3c
       0.09186074 -0.11960502 -0.055815287 0.008941653
000110 28 35 01 be f1 4d a1 3e b8 70 9f 3d 55 9c 96 3c
       -0.12617934 0.31504777 0.07785171 0.018385092
000120 49 55 8e 3d 77 fe 1b bd 36 b3 f1 bd 3c 32 8b 3d
       0.069498606 -0.038084473 -0.1180176 0.06796691
000130 4e a9 51 3e 5d 76 eb 3d 3c e9 01 be 25 11 2c 3e
       0.20474741 0.114971854 -0.12686628 0.16803415
000140 27 7b 1c 3e 2a d6 bb 3d 2d 15 87 bd 2c 4c 53 3e
       0.15281354 0.09171708 -0.06595836 0.20634526
000150 9c 8e 9a 3d 37 28 54 3d 2e 2a 8d 3d 39 57 8c 3e
       0.07546732 0.051796164 0.06892811 0.27410296
000160 49 ce 90 3d bc 7e ef 3c e7 62 80 bd 47 23 0c 3e
       0.07070596 0.029235236 -0.06268864 0.13685332
000170 42 f2 28 3e e9 2e ec bd 85 86 bb bd 77 78 51 3e
       0.16498664 -0.11532385 -0.09156517 0.2045611
000180 8b d8 9b bd 94 60 da 3d 3b 4b f9 bc 90 f2 92 be
       -0.07609662 0.10662952 -0.03043138 -0.28700686
000190 db 5f 6b 3d db b7 0c be 7f cc b8 bd c4 b6 ce bd
       0.05746446 -0.1374201 -0.090233795 -0.100934535
0001a0 9c bd 02 be 99 8f 2b bd 26 f7 48 bd 51 da 1c be
       -0.12767643 -0.041884992 -0.049063824 -0.15317656
0001b0 b0 82 fa 3b bd 58 63 be 0d 02 fe bd d9 2e 72 bd
       0.0076449737 -0.2220182 -0.12402735 -0.05912671
0001c0 b8 f7 bf 3a c7 05 5c 3e 73 37 94 3d 2f 93 07 be
       0.001464597 0.21486579 0.072371386 -0.1323974
0001d0 52 c0 9e bc 73 b8 83 3e a5 56 d9 bd 15 59 21 bd
       -0.019378815 0.2572666 -0.10612229 -0.039391596
0001e0 a6 bc ed 3d b0 cc 9f 3d bf 17 ad 3d 47 df 9a bb
       0.116082475 0.07802713 0.08451795 -0.0047263238
0001f0 73 a5 7e 3e 6c 13 06 3e 5e 8f 08 be 44 f2 23 bd
       0.24867801 0.13093346 -0.1333594 -0.040025964
000200 24 dd b1 bb fd 5f 42 3d 26 14 33 bd eb b7 bc bc
       -0.0054279733 0.047454823 -0.043720387 -0.023036918
000210 85 3d 5e 3e a6 d0 95 3c ff bc a0 3d 70 54 4f 3d
       0.21703155 0.018287968 0.07848548 0.050617635
000220 9c 00 96 bd 42 7a 98 bd 38 84 23 be 5b 92 fa 3a
       -0.07324335 -0.07445194 -0.15968406 0.0019117104
000230 5a 61 9d bd d0 c4 95 be 50 4e 2a be 9e 0f 14 3e
       -0.07684584 -0.2925172 -0.16631436 0.14459082
000240 62 0f 18 be 35 2c e3 3c c8 f0 fa bc 89 f4 0c 3e
       -0.14849618 0.02773104 -0.030632392 0.13765158
000250 8f 89 c1 3d 83 4e 83 bd d5 20 23 3d 07 ff 32 3d
       0.09450065 -0.06411459 0.039826233 0.043700244
000260 fe 7f 28 3d db 05 be 3c 22 b4 ab 3d 5e 91 86 bd
       0.041137688 0.023196151 0.08383967 -0.06570695
000270 24 3d a6 3c ea 5a ea be 41 5b 5f bd 68 85 6a bc
       0.020292826 -0.45772487 -0.054530386 -0.014314033
000280 c8 d9 3f be c7 cf c0 bd 2f 14 3b bd 80 33 7a bd
       -0.1873542 -0.094146304 -0.045673545 -0.06108427
000290 20 63 00 3e 44 19 3a bf d1 cd a3 3d 6c da 02 bd
       0.12537813 -0.726948 0.07998241 -0.031946585
0002a0 c8 17 11 be 95 8b 35 bc 24 7b 96 bc 51 bd e8 3d
       -0.14169228 -0.011080642 -0.018369265 0.11364234
0002b0 3a ac 46 bd 6e 9c 28 be 8d 8d 5b 3c ec 99 20 3e
       -0.04850409 -0.16465923 0.013400448 0.15683717
0002c0 5f f3 55 bd d0 e8 f2 3d 2c 2d dd bc 48 63 47 be
       -0.05223405 0.11860812 -0.026999079 -0.19471467
0002d0 5f cc df 3c 16 eb 04 bf fe 1b de bd 50 31 16 be
       0.027319131 -0.5192121 -0.10845183 -0.14667249
0002e0 cf 75 23 be ce 86 b0 bc d2 6b 81 3d 44 9f 6b bd
       -0.15962909 -0.021548655 0.06319393 -0.057524934
0002f0 ff 56 6d 3e a3 ce 2f bf 31 fd 7b 3c c4 2a a1 bc
       0.23177718 -0.6867468 0.01538019 -0.019673713
000300 3b a1 a3 3d 78 41 be bd e7 92 af 3d 6c ce 2b 3e
       0.07989737 -0.09289831 0.08572941 0.16777962
000310 dc 98 39 3e b3 de 89 bd a0 01 76 bd 9e 0c 19 3e
       0.18124717 -0.0673193 -0.060060143 0.1494622
000320 a5 09 3a 3d 36 cd 76 3d b8 89 ac bd 0a 90 4b 3e
       0.045419354 0.0602543 -0.08424705 0.19879165
000330 77 bd 82 3e 4a 20 97 3c 22 7c ac 3c db 23 75 3e
       0.25535175 0.018448014 0.021055285 0.23939459
000340 7c f4 1b 3e bd a1 20 3c 8c 13 ac bc ec e7 d7 3d
       0.15229982 0.009804186 -0.021005414 0.105422825
000350 5c c7 8e 3e d6 46 65 bd 16 12 ab bd bc b7 93 3e
       0.27886474 -0.055975758 -0.08353059 0.28851116
000360 21 37 f2 bc 33 b7 0f 3e 7c dc bb 3c 27 48 9c be
       -0.029567303 0.14034729 0.022932284 -0.30523798
000370 fc 4b da bd 91 f0 08 bd f8 a5 2c bd aa d4 90 be
       -0.10659024 -0.033432547 -0.042150468 -0.2828725
000380 41 aa 36 3e ef 78 10 3e 76 2d 0d bb 01 7e 42 3d
       0.17838384 0.14108633 -0.002154199 0.047483448
000390 e2 e0 16 be ea 10 a3 3e 68 ba a0 3d 83 f9 79 3d
       -0.14734223 0.31848842 0.07848054 0.06102897
0003a0 9a 8d 93 3d 7a 9c 59 3e c5 b3 b6 3b 44 ef 9b 3e
       0.07204743 0.21251097 0.0055756294 0.30455983
0003b0 0b 67 59 bc 67 02 a9 3e c9 6b 31 bd a3 80 63 3e
       -0.013269196 0.33009645 -0.043315683 0.2221704
0003c0 8a ae 41 3d 55 c0 e8 bd 4d 2d e0 bd 90 81 5d be
       0.047285594 -0.113648094 -0.109461404 -0.21631455
0003d0 c8 56 15 be d8 78 b1 3d e8 b2 50 3d 08 0c 1f be
       -0.14583886 0.08665627 0.05095187 -0.15531933
0003e0 89 95 80 bd f3 14 0a bd b0 32 96 bd 7e 0a c8 bd
       -0.062785216 -0.033711385 -0.073338866 -0.09767626
0003f0 30 1a 4b be 6c 32 c5 3e 85 67 4d 3c 77 d9 7d bd
       -0.19834208 0.3851503 0.012536888 -0.06197497

fully_connected_layers.0.bias f4 [64]
000000 12 e4 be 3d 83 04 26 bd 16 aa 8d 3e 3d 55 32 be
       0.09320845 -0.040531646 0.27668828 -0.17415328
000010 ed 18 05 be d1 91 1d be d1 4a 5d 3e ab ca 21 be
       -0.1299779 -0.15387656 0.21610571 -0.15799968
000020 be 6f 9b bd e3 de 87 be ea 26 0a be c5 3c 80 bd
       -0.075896725 -0.26537237 -0.13491407 -0.06261591
000030 05 68 0a bd 37 41 7e be 9b 52 36 3b 04 c5 a4 3d
       -0.033790607 -0.24829565 0.0027820233 0.0804539
000040 b2 78 eb 3c 86 7e 5a 3e 89 8b a2 bc 30 44 db bd
       0.028744075 0.21337327 -0.019841926 -0.10706365
000050 d6 21 19 3e 11 d8 51 bc 25 eb 28 be 6e 01 e7 3c
       0.14954314 -0.012807862 -0.1649595 0.028198924
000060 cd 9d 68 3e 9a 77 3c 3e 80 a4 01 3c ee 0b cc bc
       0.22716446 0.18405 0.007912755 -0.024908032
000070 63 64 0f bd a8 0c e8 bd a2 99 8f 3e 45 01 1b 3d
       -0.035007846 -0.11330539 0.280469 0.037843008
000080 9d 78 0a 3d de f6 de bd 36 99 10 3e 41 32 89 3d
       0.033806432 -0.1088693 0.14120945 0.06699038
000090 f8 fc 22 be d3 74 bd bc 00 8a 40 bd 4c 5f ff 3d
       -0.15916812 -0.023126995 -0.047006607 0.12469348
0000a0 6d 82 4e be 37 52 04 be 6d be d0 bd 64 6f df 3d
       -0.20166941 -0.12921987 -0.10192571 0.10909918
0000b0 1b 78 d3 3d ae d8 99 3d 8c 30 7a bd b7 52 f3 bd
       0.10325643 0.075120315 -0.061081454 -0.11881011
0000c0 94 1e 51 be 17 01 d9 3d ef 73 a1 3d db e7 a6 3d
       -0.20421821 0.10595911 0.07883441 0.08149692
0000d0 b8 a5 8b 3e 6b 66 83 3a 32 57 4d be e9 97 39 be
       0.2727487 0.001002503 -0.20052794 -0.18124355
0000e0 f4 d2 cb bd 9c 92 68 3e de 46 24 3d 56 e4 7b bc
       -0.099523455 0.22712177 0.040106647 -0.015374264
0000f0 46 64 b9 3b b2 95 58 be 40 c8 6a 3d a3 3e fc bd
       0.0056577055 -0.21150854 0.05731988 -0.123166345

fully_connected_layers.1.weight f4 [32, 88]
000000 17 5f d0 bd af 46 6b be 42 df 8c bd 16 d4 53 3e
       -0.10174387 -0.22976182 -0.068785205 0.20686373
000010 fb 6e 4f be e0 aa c9 bc ea 79 44 3e f2 e2 42 3d
       -0.2025718 -0.024617612 0.19187132 0.047579713
000020 52 58 40 be 53 2c ad bc 64 03 f6 bd 78 58 9e bd
       -0.18783692 -0.0211393 -0.120123655 -0.07731718
000030 6b 55 3e bd 2f da 16 be ec 8b bc bd cc db 93 3d
       -0.04646818 -0.14731668 -0.092063755 0.07219657
000040 3e 5e 4b bd ef 6d 4f 3e 7d cb 37 bd f2 8e 8d 3d
       -0.049650423 0.2025678 -0.044871796 0.0691203
000050 b7 d1 9d bd 0c a1 b2 3d 2a e1 a2 bd b0 11 38 be
       -0.077060156 0.087221235 -0.07953103 -0.17975497
000060 1e f0 87 3e 5f 1b 4e bd 8f fc ff 3c f7 aa 31 3e
       0.26550382 -0.05031907 0.031248359 0.17350374
000070 e6 d8 17 3e e9 e2 d0 bd 7e 55 5b be a5 37 9a bd
       0.14828834 -0.1019953 -0.21419331 -0.075301446
000080 3e aa ba bd 45 6b 93 bd b5 59 3e 3e 6c 2b 8f bd
       -0.09114502 -0.071981944 0.18588908 -0.06990704
000090 cd ae 4e 3d 2f d4 34 be 9c 82 2d bd e4 62 37 3e
       0.05045967 -0.17659067 -0.042360887 0.17908818
0000a0 72 d2 3f 3e 80 76 93 bc d9 f8 8b be 6f ed b2 3d
       0.18732622 -0.018000841 -0.27338293 0.08736693
0000b0 ff c2 87 3e d7 16 31 3e 66 b3 4a be 4d 7e 0b 3d
       0.26515958 0.17293869 -0.19794998 0.034055997
0000c0 b7 51 e7 bc 88 69 34 3e 4f b6 f8 3c ee f2 bf 3d
       -0.028237207 0.17618382 0.030360369 0.09372507
0000d0 f1 aa 65 bd 40 35 93 3d 9d 71 88 3e ea 01 d3 3c
       -0.056071226 0.07187891 0.2664918 0.025757749
0000e0 31 92 45 be a0 4a 63 bd 87 2e a2 be 7a 5f 02 bd
       -0.19294049 -0.05549109 -0.31676123 -0.031829335
0000f0 64 c3 8b bd e0 dc 74 be c2 a3 cc bc 10 6b 05 3e
       -0.06824377 -0.23912382 -0.02498043 0.13029122
000100 f7 b2 5d bd 26 a7 e0 3d 11 4c 6f 3e ae 68 c6 3d
       -0.054125752 0.10969381 0.23368861 0.09687935
000110 45 fe 4a 3e 78 2c 7e 3e 25 3c 39 3d bd 0b 8e be
       0.19823559 0.24821651 0.045223374 -0.2774333
000120 43 57 e4 3c 0e 24 ee bd 94 58 e0 be 1c 3a 53 3d
       0.02787364 -0.11627971 -0.4381758 0.05156909
000130 83 d4 15 3e 92 10 4e bd c9 7f e7 bd 7b 66 f1 3d
       0.14631848 -0.05030877 -0.1130367 0.11787125
000140 0a 0f 6c bd eb 66 15 3e 9c 88 4d bd 6e 9b 11 be
       -0.05763153 0.14590041 -0.05017911 -0.14219448
000150 13 14 0f bd 97 10 91 bc 90 de 40 3c 73 72 c2 bc
       -0.034931254 -0.017708106 0.011771813 -0.023736214
000160 77 50 4c bc cb b0 a4 bd 68 38 c7 bd 87 a5 33 3e
       -0.012470356 -0.08041533 -0.097275555 0.17543612
000170 90 06 18 bd e2 ba 8d be 53 e3 df bc 9b 1a 14 3e
       -0.037115633 -0.27681643 -0.027330076 0.14463274
000180 49 61 54 bd 99 e6 23 be e5 0e ef bd 25 72 b2 bd
       -0.05185059 -0.16005935 -0.11672763 -0.087131776
000190 3d e7 66 bd 41 45 a3 bc f4 6e ca bc cf 85 34 3e
       -0.05637287 -0.019930484 -0.02471111 0.17629169
0001a0 6c c0 ec 38 e0 ac 34 be f3 02 20 3e 20 eb dc bd
       0.00011289198 -0.17644072 0.15626125 -0.10787034
0001b0 0c f2 98 be b2 72 55 3d ee 9a 68 3b 54 fc 35 be
       -0.29872167 0.052111335 0.0035492736 -0.17772037
0001c0 5e 1f 4a 3e 2d 43 b6 3e bc 9d 3b 3e 81 1f 03 be
       0.19738528 0.35598126 0.1832189 -0.12804987
0001d0 73 98 21 bd 73 a8 0b be 15 7d 37 be d9 09 32 be
       -0.039452028 -0.13638477 -0.17918809 -0.17386569
0001e0 1b a0 7b 3c 39 9b 98 bc 26 d9 33 3e 80 e8 ba bd
       0.015357996 -0.018628703 0.17563304 -0.09126377
0001f0 5b d8 2f 3e 6f 8c 74 bd 32 d2 a0 3e 16 20 28 3e
       0.17172377 -0.05970424 0.31410366 0.1641849
000200 d2 99 ca 3d a4 bd 79 bc 44 76 87 3e 56 cd d2 3e
       0.0989262 -0.015242968 0.26457417 0.41172284
000210 f2 a1 61 3d ce 48 27 3e 57 38 58 be ce f8 1a 3d
       0.055086084 0.16336367 -0.21115242 0.037834935
000220 cb 8f 47 3e ec 70 0a be cb f4 8b bc df f2 fe 3d
       0.19488446 -0.13519639 -0.0170845 0.12448668
000230 3b 69 7d 3d ca fd ab 3d 06 0f a9 bc 5f 13 87 3e
       0.061867934 0.08398016 -0.020637047 0.26381966
000240 e6 59 e0 3c ad 57 a0 bd a2 e1 8b be ae 52 c2 3d
       0.027386617 -0.07829223 -0.27320582 0.09488426
000250 0f 78 19 be d7 83 7a be dd 5d e8 3d c9 ef 2e bd
       -0.14987205 -0.24464355 0.11346028 -0.042709146
000260 52 2f 4f 3d 5c b6 c3 b9 b8 02 03 3e 38 6c 27 3e
       0.050582238 -0.00037329167 0.12794006 0.16349876
000270 3c 7c 88 3e fd 16 2a 3e 3d bc 88 bd 9f 3d 80 bd
       0.26657283 0.16610332 -0.066765286 -0.06261753
000280 8d a6 42 bc 14 a9 d1 bd 1b d3 e1 be f7 e9 6e 3d
       -0.011880529 -0.10237327 -0.44106373 0.058328595
000290 43 6f 0d 3e a4 b3 3a 3e 68 1a 70 be 35 a7 d5 bd
       0.13811974 0.1823259 -0.23447573 -0.10432283
0002a0 ef 49 f2 bd 31 32 a6 3c 43 e1 00 3c b9 b1 86 3d
       -0.11830508 0.020287605 0.007866207 0.06576867
0002b0 6c 57 82 bd 8e 59 00 be 50 00 f7 3d 79 bc 0f 3d
       -0.06364331 -0.12534162 0.120606065 0.03509185
0002c0 5a 93 00 bd 61 33 c9 3d ef 15 d6 3d 00 c1 51 bd
       -0.031390525 0.09824253 0.10453402 -0.05120945
0002d0 04 47 d7 3d 3b 44 11 be 85 b9 84 bd 98 eb 12 be
       0.10511592 -0.14186184 -0.064806975 -0.14347684
0002e0 0f b5 49 be c2 0e ef bd 6d 8d 59 3d 0e d3 60 3d
       -0.19697975 -0.11672737 0.05311339 0.054888777
0002f0 52 07 8f bd 3c 2a 3c be 92 5a 85 3d 72 74 d2 3c
       -0.06983818 -0.18375486 0.065114155 0.025690291
000300 d3 24 54 3d be 55 37 be c5 96 b4 bd d0 00 61 be
       0.05179293 -0.17903802 -0.088178195 -0.21972966
000310 f2 87 a8 3e 7c a0 54 bf c8 bd 58 bd 96 43 68 be
       0.32916218 -0.8305738 -0.052915365 -0.22682032
000320 17 2f 08 3d 59 65 55 3e 58 74 d3 3c b4 da 18 be
       0.033248033 0.20839442 0.025812313 -0.14927179
000330 30 51 99 3b 4c 07 03 3e 5b 8e cc 3e c2 8d 1a 3e
       0.0046788678 0.12795752 0.3995236 0.15093139
000340 5a 36 79 3e f6 72 3f 3d dd c5 d5 bc e8 31 ee bd
       0.2433714 0.046740495 -0.026095325 -0.116306126
000350 9b 9c 93 3e d2 ee 9f be 43 0d 6f bc 5d 78 99 bc
       0.28830418 -0.31236893 -0.014590564 -0.018734151
000360 4c 54 9e 3d 3a 92 1d 3e f5 5f 26 3e b6 0e 89 be
       0.07730922 0.15387812 0.16247542 -0.26769036
000370 28 b5 28 bd 10 1a 34 3e 75 fc b7 bd da d7 0b bd
       -0.04118839 0.17588067 -0.08983699 -0.0341414
000380 01 c1 58 3e b7 6a ad 3d 7e c5 ff 3d 9d 4a 60 3e
       0.21167375 0.0846762 0.124888405 0.21903463
000390 11 29 6a be a0 2c 92 bd 94 b0 02 be 1c 21 d6 bd
       -0.22867228 -0.07137418 -0.12762672 -0.10455534
0003a0 de 51 db 3d 70 17 26 be 45 31 ca 3e 47 bd d7 3d
       0.10708974 -0.16219878 0.39490715 0.10534149
0003b0 8a 9f de 3d 84 89 1e bc 30 eb 00 be 84 c4 7e 3e
       0.108702734 -0.009676341 -0.12589717 0.24879652
0003c0 dd 21 39 be bd ae 56 3e 6f 41 ed bd 6b 0e b7 3d
       -0.18079324 0.20965095 -0.11584746 0.08938297
0003d0 93 91 e0 3d 5a 4c 1a be 05 83 e1 3c 69 5f b8 3c
       0.10965266 -0.15068188 0.027528295 0.022506433
0003e0 b2 dd b2 3c 39 e7 15 be 69 8d c0 3e b7 c8 45 3e
       0.021834228 -0.14638986 0.37607887 0.19314848
0003f0 f9 c8 db ba 56 fe 00 3d 32 53 04 3e c2 ae ca bc
       -0.0016768269 0.031492554 0.12922361 -0.024741534

fully_connected_layers.1.bias f4 [32]
000000 87 5d b5 3c 03 d6 ee 3d 31 77 8b bd 34 4e 62 bd
       0.022139324 0.11661913 -0.06809843 -0.05525036
000010 64 ec f9 3c 08 80 c8 bc bf 25 b3 bd 62 68 1b bb
       0.030508228 -0.024475113 -0.08747434 -0.002371334
000020 c1 22 93 bd 83 1e 64 3d 25 03 1e be 74 0d e2 bd
       -0.07184363 0.05569316 -0.15430887 -0.11037722
000030 85 8d c3 bd 00 b3 13 be b3 6e a6 3b b6 d2 4e 3d
       -0.09548477 -0.14423752 0.0050791143 0.05049392
000040 f2 76 c6 3d 05 28 ee 3d 60 71 ae 3d 4d cd 0c 3e
       0.09690656 0.11628727 0.08517718 0.13750191
000050 26 69 f8 bd 90 15 83 bc 99 b8 0c bb 45 1f 15 be
       -0.121294305 -0.016001493 -0.0021472333 -0.1456271
000060 e4 a9 17 bd 33 0e fb bc dd 05 2e 3e a9 fb 4a bd
       -0.037027255 -0.03064642 0.16994424 -0.049556408
000070 de 17 2c bd aa 4e 70 bd 8b 46 41 3d 55 a0 c0 3b
       -0.04201495 -0.05866877 0.047186416 0.005878488

fully_connected_layers.2.weight f4 [32, 56]
000000 da 57 dd bd 9e 79 1e 3c 27 43 37 3d 51 e7 07 3e
       -0.10807772 0.0096725505 0.044741776 0.13271834
000010 a7 eb d4 bd 72 55 12 be 70 dc 2e be 53 4d b3 3b
       -0.103965096 -0.14290407 -0.17076278 0.0054718642
000020 8d 70 2a bd 98 59 75 3d 80 c5 86 ba a0 08 34 be
       -0.041611243 0.059899896 -0.0010282248 -0.17581415
000030 a3 89 6f be 16 2c 5b bd a6 e5 29 3d 6d 11 6d bc
       -0.23392348 -0.05350884 0.041478775 -0.014469487
000040 1c d9 a8 3d 16 4d 97 bd 9f 80 0f bd e5 fc 37 3e
       0.08244535 -0.0738775 -0.035034772 0.17967565
000050 7b 1f b7 bb b7 9e 34 3e 7a 19 b9 bb 84 da d7 3d
       -0.0055884696 0.1763867 -0.005648789 0.105397254
000060 52 8f f8 3d c8 e8 42 3e 15 56 8c bb 4b d9 92 bd
       0.12136711 0.19034111 -0.0042827227 -0.071703516
000070 63 16 49 3e 32 b9 d5 3d 69 81 70 bd b5 37 0d 3e
       0.19637446 0.10435714 -0.058717165 0.13790782
000080 bb 1f 3d bc a8 0a 10 3e 11 12 99 be 08 9d 1b be
       -0.01154321 0.14066565 -0.29896596 -0.15196621
000090 f3 7f 3c be e4 dc 1e be 15 d0 0a 3e 09 dd 84 bd
       -0.18408184 -0.1551395 0.1355594 -0.064874716
0000a0 97 aa 29 bc ff ec 33 bd dc 14 e7 bd 7b 11 21 3e
       -0.010355613 -0.04392719 -0.112832755 0.15729325
0000b0 d7 47 36 bd 2a f6 87 3d 53 26 86 be ac 12 0c bc
       -0.044502106 0.06638749 -0.26201114 -0.008549374
0000c0 49 8f 8c 3e 35 00 16 bd c6 b8 67 3e ad 56 5f 3e
       0.27453068 -0.03662129 0.22629079 0.21810408
0000d0 f0 a2 87 3d a4 82 37 be 9f 53 85 3e 5d 5a 9b 3d
       0.06622875 -0.17920929 0.2604036 0.07585595
0000e0 96 cf f2 bd cb e5 34 be 57 ad 2a 3e 13 b3 ab bd
       -0.11856 -0.17665784 0.16667686 -0.08383765
0000f0 54 80 1a 3d da 36 b0 be cd b0 9b 3d 3e 70 1b 3e
       0.03772004 -0.34416848 0.076020814 0.15179536
000100 50 9d 1e bd 45 7a 2b 3d 41 5b ab bc 6c 10 03 3d
       -0.038724244 0.041864652 -0.020917537 0.031998083
000110 00 07 c8 bd 92 b5 33 be b3 75 f6 bd 7f 6b 16 3b
       -0.0976696 -0.17549732 -0.12034168 0.0022952256
000120 15 b5 75 bd 15 b4 81 3c 17 52 1f be a0 bc 03 be
       -0.059987146 0.01583294 -0.15558659 -0.12864923
000130 04 b8 ca bd 7b c9 23 3e a4 3a f0 3c 42 54 30 be
       -0.098983794 0.15994827 0.029324837 -0.17219642
000140 0f 53 d3 3d 71 25 37 3d 82 72 d8 3d 93 db ad bd
       0.103185765 0.04471344 0.10568716 -0.08489146
000150 b1 53 cb 3b 1a a8 e3 3d 28 6f c5 3d 5c 80 c2 bc
       0.006205045 0.11116047 0.09640342 -0.023742847
000160 0a 47 49 3e 20 e2 18 3d 60 97 87 be 59 6d 9d bd
       0.19656006 0.037325025 -0.26482677 -0.07686872
000170 3a 4a 08 be c5 e5 20 be 6e e9 85 3e fd c9 50 3e
       -0.13309565 -0.1571265 0.26154655 0.20389552
000180 8a 40 80 3e 97 6a 23 3e 67 d9 f8 3d a5 ae 48 3d
       0.2504924 0.1595863 0.12150841 0.04899468
000190 8f d9 dc 3d 1e 3e d3 3c bc d2 f7 3b a7 30 28 be
       0.107836835 0.025786456 0.0075629633 -0.1642481
0001a0 eb 65 75 3c e5 fa 9d bc f3 84 84 3d f8 f3 b0 3d
       0.014977912 -0.019284675 0.064706706 0.08640283
0001b0 5f 98 52 be 7e 18 c1 bd d3 88 6f 3e 86 97 74 3d
       -0.20565937 -0.094285 0.23392038 0.059714817
0001c0 8a a3 d7 bd 0c 88 a2 3e 82 48 db bd 76 c2 12 be
       -0.105292395 0.3174442 -0.10707189 -0.14331993
0001d0 eb a2 45 3c 1d b2 a0 3e 40 43 87 ba 94 6e 97 bd
       0.012062768 0.3138589 -0.0010319725 -0.07394138
0001e0 21 b8 af 3d 12 33 63 3e d8 9e 80 3d 97 41 67 3d
       0.08580042 0.2218745 0.06280297 0.056459036
0001f0 e9 c2 31 bd 15 53 6f 3e 88 b0 db bd d9 77 eb bd
       -0.04339877 0.23371537 -0.1072703 -0.114974685
000200 45 1b ce bc c6 52 6e 3d 2a db 7c 3c e7 78 20 3e
       -0.025159488 0.058184408 0.015433112 0.1567112
000210 66 7c 19 3e 2f 96 97 3e 72 8d 57 bd 00 8b 8d bd
       0.1498886 0.29606768 -0.052625127 -0.06911278
000220 ac eb 12 bd 67 71 c5 3d b6 14 83 be b5 0c ab 3c
       -0.035869285 0.096407704 -0.2560174 0.020880083
000230 1f 25 e8 3c e7 d1 0e 3d b1 85 47 3e aa 0e 09 3d
       0.028338013 0.034868147 0.19484593 0.03346125
000240 19 bf 09 3e 9c 5e 16 bd 7c c7 b3 bd 50 e6 04 3e
       0.13451804 -0.03671132 -0.08778283 0.12978482
000250 aa 4b 0a 3e 89 70 76 bd 67 43 8f bc a1 2a 09 3e
       0.13505426 -0.060165916 -0.017488195 0.13395168
000260 69 ef 0a be e2 fe 77 bd b9 51 31 be 74 4b 27 be
       -0.1356789 -0.06054581 -0.17316331 -0.16337377
000270 ab f2 56 3e b6 5c 46 bd 79 ee e6 bd 2e d4 6a 3e
       0.20991008 -0.04842826 -0.11275954 0.22932503
000280 84 77 98 bb 53 36 13 be 4d 3f 9f bc 14 04 c6 bd
       -0.0046529192 -0.14376192 -0.019439364 -0.096687466
000290 86 3a 48 3d 8f 2f 21 bd a3 a3 e7 3d 96 e5 f2 bd
       0.048883937 -0.039351996 0.11310508 -0.11860196
0002a0 f3 7c 86 3d cc b0 64 3e b5 d7 e5 bd a9 37 f3 be
       0.06566801 0.22333068 -0.112227835 -0.47503403
0002b0 7d 4e c3 bc 3e 90 db bc 87 da 51 bc e6 5d d1 be
       -0.023841137 -0.026802178 -0.012808449 -0.4089195
0002c0 eb 96 03 bd e1 3b 3b 3c 33 45 29 3e 4b dc f7 bd
       -0.03212635 0.01142785 0.16530304 -0.121025644
0002d0 e7 f1 48 3e 17 f2 35 3e 57 c8 f6 bd 9b 3c 79 be
       0.19623528 0.17768131 -0.120499305 -0.24339525
0002e0 3c 9e bf bd bb 88 0e be 9a 0e c9 3d c7 b4 99 bd
       -0.09356353 -0.13919346 0.09817238 -0.07505184
0002f0 1e 49 89 3d 20 d5 a3 3d a8 83 27 3d 62 3f 0a be
       0.06703399 0.07999635 0.04089704 -0.13500741
000300 d3 ef 91 be 0a fd b2 bc dd 52 32 3e c5 59 7a bd
       -0.28503284 -0.021849174 0.17414422 -0.061120767
000310 69 91 a8 3d 55 d2 0d 3d 53 c6 82 3e aa 49 4c 3d
       0.0823086 0.034624416 0.25541934 0.04987494
000320 75 d1 ab 3d 6d ef b3 ba d7 67 0a 3d e0 c6 2b bc
       0.0838956 -0.0013727971 0.033790436 -0.010484427
000330 bb 52 b3 3d 81 97 2e 3d 44 f4 71 3c a9 2a 84 3d
       0.08756014 0.042624954 0.01476771 0.06453449
000340 0f 1b 0a be bc 81 1a 3e ab e1 be bd 61 b7 77 3c
       -0.13486885 0.15088552 -0.093203865 0.0151194045
000350 77 f8 8d 3d 51 9f 6a be 3c 36 ac 3d 39 72 fb 3d
       0.069321565 -0.22912337 0.08408782 0.122776456
000360 be e9 11 be fd d2 09 bd 61 2d 76 be 60 8b f3 3d
       -0.14249322 -0.03364848 -0.24040748 0.11891818
000370 33 78 58 3c bf 21 e7 3d 58 74 82 be 68 a0 9b be
       0.0132122515 0.112857334 -0.25479388 -0.30395818
000380 2e 89 f3 bc 51 2d 52 bb ec 14 cc 3c 33 08 c2 be
       -0.029728498 -0.0032070468 0.02491232 -0.3789688
000390 07 c8 f5 bd e3 23 9a 3e ea dc 97 3d 06 c7 fe bd
       -0.12001043 0.30105504 0.07415183 -0.124403045
0003a0 ed 0d 92 3d 5e d6 bf 3c 77 2b 81 bd c2 94 3c bd
       0.071315624 0.023417648 -0.063071184 -0.046040304
0003b0 3c bb e0 3d 94 d0 d9 3e 76 8f 8d bd 84 fd 8c bd
       0.10973212 0.42541945 -0.069121286 -0.06884292
0003c0 0d 5f 87 bc 39 62 f3 bd af b3 f7 3c 6b 2e 1b 3e
       -0.016524816 -0.11883969 0.030237047 0.15154426
0003d0 fc 51 9a bd a0 e2 8a 3e d5 f0 94 bd 4a ac 55 3d
       -0.075351685 0.27126026 -0.072724976 0.05216626
0003e0 34 69 0f be 48 8b b2 bd c9 2e de 3d c2 ac f1 bd
       -0.14004976 -0.08717972 0.10848767 -0.11800529
0003f0 ed 1d 8a bd 5b f3 29 be 0d 52 d5 3d d2 6c 83 3d
       -0.06743989 -0.16596739 0.104160406 0.0641724

fully_connected_layers.2.bias f4 [32]
000000 09 51 c4 3d 13 1f 01 3e c8 69 0b be d0 08 f1 3c
       0.09585769 0.1260951 -0.13614571 0.029423147
000010 30 6a d8 bd 97 5e 28 bd 8a d9 13 3d 3c 82 31 bd
       -0.10567129 -0.041105833 0.036096133 -0.04333709
000020 74 a8 f1 3d 86 cb f5 bd 8e ba e2 3c 99 9a 8a 3d
       0.11799708 -0.1200171 0.027676847 0.067677684
000030 84 08 3d 3d 9f fb 38 bc 04 e7 0b 3c 14 6c 07 3d
       0.0461507 -0.01129046 0.008538965 0.033062056
000040 9a 06 57 3d 8f 9d 02 3e d2 a5 9a bd 46 f2 8a bd
       0.05249653 0.12755416 -0.07551159 -0.06784491
000050 d8 01 10 be 44 f1 7c 3c d9 01 9b 3d e5 ef b0 3d
       -0.14063203 0.015438382 0.07568712 0.08639506
000060 f5 5f cb 3d bd ab 5e 3c c0 2a a6 3c aa da ec ba
       0.09930412 0.01359075 0.020284057 -0.0018070538
000070 82 3f 4e 3e 72 60 5f 3d 27 d0 1f bd a5 3d 8d bc
       0.20141414 0.054535337 -0.03901687 -0.017241308

fully_connected_layers.3.weight f4 [2, 56]
000000 3a be 6b bd 6d cc 9d 3d e8 a7 c5 bc 37 b7 a6 bd
       -0.05755446 0.07705007 -0.024127916 -0.08140414
000010 d8 3e 43 bd 0b df 68 3e f6 5e a9 bc b3 f1 a1 bd
       -0.047667354 0.22741334 -0.020675164 -0.079074286
000020 ee 59 0a bd 15 df 2f 3d 41 7f 9f bc 6f cd cf bc
       -0.03377717 0.042937357 -0.01946986 -0.025366513
000030 aa 44 23 3d 5e 26 d2 3d bb 34 a9 bc 0b 7a e0 bc
       0.039860405 0.10261224 -0.020655027 -0.027401945
000040 54 1a 19 bd 22 86 82 ba 5a 82 90 bc b6 15 5c ba
       -0.037378624 -0.0009958188 -0.017640281 -0.0008395569
000050 e9 cb ed 3d 5b a8 06 be fa 58 78 bc 27 db 96 39
       0.116111584 -0.1315016 -0.015157932 0.0002877351
000060 42 d6 96 bd 61 0b 51 bd bc fb 1c 3e 4f 65 14 3e
       -0.07365085 -0.051036242 0.15330404 0.14491771
000070 ee c8 cc 3d ec 81 14 bd c6 78 a9 3e 4f a3 6b be
       0.09999262 -0.036256716 0.33099955 -0.23011516
000080 3d 93 fa bd 69 b4 84 3d 8e 44 11 3c 5d 53 f2 bc
       -0.12235115 0.06479723 0.008866442 -0.029580766
000090 7d b2 1b 3e ee 94 ec 3b bb c3 24 3d ef b5 d2 3d
       0.15204807 0.0072199022 0.040225726 0.10288607
0000a0 6a 1b 04 3e 54 1a cb bd 14 0a 48 3e 74 12 17 3d
       0.12901083 -0.09917131 0.19535094 0.036882833
0000b0 1c 68 41 3d 53 8a d6 3d 3b 11 b0 bd 33 2e be bd
       0.047218427 0.10475602 -0.085970365 -0.092861556
0000c0 f2 b2 be 3d 22 39 95 3d 0c 9f 1f 3e 09 32 5f 3d
       0.09311475 0.07286288 0.15588015 0.054491077
0000d0 d2 4d a5 3e bb 37 09 3d 00 ee 08 3e f2 13 4b bd
       0.32285935 0.033500414 0.1337204 -0.04957957
0000e0 b4 4f fa 3d 64 40 87 bd af ab 9c bc 8a 07 d9 bc
       0.122222334 -0.066040784 -0.019124834 -0.026492853
0000f0 32 be 88 3d 5e 8d 82 bd be 4d bd bc 9c 69 ee bc
       0.06676902 -0.0637462 -0.02310836 -0.029103093
000100 f3 91 fc 3d 2d 2c 50 bd 10 bc 2c bd 6d e7 ac bc
       0.12332525 -0.05082338 -0.042171538 -0.021106446
000110 c7 a0 60 3d 03 d5 86 bc 40 98 30 bd 07 30 c5 bc
       0.05484083 -0.016458994 -0.043113947 -0.024070753
000120 2d 8e 06 3e f5 9b c0 bc d9 c9 21 bd 68 85 00 bd
       0.13140173 -0.023511866 -0.039499138 -0.031377226
000130 51 bc c4 3d 07 5f b5 3c 2f 55 2a bd 54 ed 16 bd
       0.09606231 0.02214004 -0.041585144 -0.036847427
000140 0f a9 d0 bd 18 bd d7 bd e7 58 94 bd e6 c0 92 bd
       -0.10188495 -0.10534114 -0.07243519 -0.07165699
000150 0a 4f a4 bd 75 17 d7 bd 06 7f 1a be 98 a1 64 bd
       -0.08022888 -0.10502521 -0.15087518 -0.05581817
000160 76 4e af bd ee a0 09 be d3 de 04 be 6c f3 bb bd
       -0.08559887 -0.13440296 -0.12975626 -0.091772884
000170 c6 58 32 bc 0b 55 1b be 71 7f b2 bd b4 2d 1d be
       -0.010885423 -0.1516916 -0.08715714 -0.15349466
000180 27 1e e7 bd 49 85 be bd fd 64 87 bd be c3 a9 bc
       -0.11285048 -0.09302766 -0.06611059 -0.02072322
000190 da 8c 0b be 2a 31 90 bd cb f7 cd bd 8e 5b b8 bd
       -0.1362795 -0.07040627 -0.100570284 -0.09001838
0001a0 c8 5f 2c be 59 24 71 3c 23 ea a4 bd 2d 7a 3d be
       -0.16833413 0.014718139 -0.080524705 -0.18503638
0001b0 64 5e 4e bd 26 cf c2 bd 36 ab 84 ba ab 81 f6 bd
       -0.050382987 -0.09512167 -0.0010121826 -0.12036451

fully_connected_layers.3.bias f4 [2]
000000 62 ba c1 3d c9 20 82 bc
       0.09459378 -0.015884774
