critic_checkpoint_2021-11-08T21 17 05.330083.pth (torch_old, 90370 bytes, 9 tensors)

fully_connected_layers.0.weight f4 [128, 26]
0	0x3e2996c5	0.1656142
1	0xbe835934	-0.25653994
2	0x3c7b2723	0.015329155
3	0x3c6277b1	0.013822482
4	0x3c27007f	0.010192989
5	0x3e82f628	0.25578427
6	0x3cef3f1d	0.0292049
7	0x3b17e1fb	0.0023175466
8	0xbb7068af	-0.003668349
9	0xbe9c588c	-0.30536306
10	0x3d84dfa9	0.06487972
11	0xbe0641ad	-0.13110991
12	0x3cb5af6a	0.02217837
13	0xbcef4878	-0.02920936
14	0xbcb8924e	-0.022530701
15	0xbe1564a3	-0.14589171
16	0xbc4eba78	-0.0126177
17	0xbe48f09d	-0.19623037
18	0xbc72c9df	-0.014818638
19	0x3af9feed	0.0019073166
20	0xbdf8f67a	-0.12156387
21	0xbf84ccef	-1.0375041
22	0xbd8085a8	-0.06275493
23	0x3d9ac3cd	0.07556877
24	0xbf0c1506	-0.5471958
25	0xbd8df4bf	-0.06931447
26	0x3dbbca57	0.09169453
27	0xbd2dda55	-0.042444546
28	0xbc6e62e4	-0.014549945
29	0x3defa153	0.11700692
30	0x3e101eae	0.14074203
31	0xbe979065	-0.29602352
32	0x3bee0917	0.007264267
33	0x3e04bc72	0.12962511
34	0x3dcf2ae9	0.10115606
35	0xbe0fcacb	-0.14042203
36	0x3b041119	0.0020151793
37	0x3dccfcdf	0.10009169
38	0xbe42d3b4	-0.19026071
39	0x3e15c4db	0.14625876
40	0xbc4de2cc	-0.01256628
41	0x3d2d0d3a	0.042248942
42	0x3e3df28d	0.18549557
43	0xbe0761ab	-0.13220851
44	0xbd03bf5a	-0.03216491
45	0x3cbfd4e3	0.023416942
46	0xbf1dc454	-0.616277
47	0x3f4225c1	0.7583886
48	0x3cf5e90c	0.030018352
49	0x3db985ea	0.09058745
50	0x3faf19b2	1.3679717
51	0x3d299baf	0.041408237
52	0xbc3361b0	-0.0109485835
53	0xbdd22b57	-0.10262173
54	0xbcbb9aa6	-0.02290089
55	0x3dbaf23e	0.09128235
56	0x3e8fd428	0.2809155
57	0xbf73eead	-0.95286065
58	0x3ccc9982	0.024975542
59	0xba902b70	-0.0010999274
60	0xbd3fea0c	-0.046854064
61	0xbdac2e31	-0.08407248
62	0x3c2d9a0f	0.010595812
63	0x3e621092	0.22076634
64	0x3e8ee20d	0.27906838
65	0xbf85e531	-1.0460569
66	0xbcbd72b2	-0.02312598
67	0x3e861272	0.26185948
68	0xbc9eedf9	-0.019400584
69	0xbdafd62f	-0.08585774
70	0xbdeb20a9	-0.11480839
71	0x3c2e411d	0.010635641
72	0x3ca4bbe3	0.020109123
73	0xbe19c265	-0.15015562
74	0xbd46e161	-0.04855478
75	0x3dbd8366	0.09253578
76	0xbe7faf2b	-0.24969165
77	0xbd8d6977	-0.069048814
78	0x3de842b3	0.11340847
79	0x3e1bb8f2	0.1520727
80	0x3da42f85	0.08016876
81	0x3c6da147	0.014503784
82	0xbcf54b35	-0.029943088
83	0xbdb4cfc5	-0.088286914
84	0xbdaffc20	-0.08593011
85	0xbc32eed7	-0.010921202
86	0x3c4834a5	0.012219583
87	0x3e2539b0	0.16135287
88	0x3d019db2	0.03164453
89	0xbcda2b3a	-0.02663194
90	0x3d6ae044	0.057342783
91	0x3ccc2290	0.024918824
92	0xbd07268d	-0.03299575
93	0x3cf254b4	0.029581405
94	0x3e0fc290	0.14039063
95	0x3db68bac	0.08913359
96	0xbb2a0b19	-0.0025946556
97	0xbc08d1c9	-0.008350798
98	0xbc913d86	-0.017729532
99	0xbb972a6d	-0.004613212
100	0xbbb16ed7	-0.0054148245
101	0x3ba8393e	0.005133777
102	0xbbdfb800	-0.0068273544
103	0x3d6e936b	0.058246057
104	0xbd95cd29	-0.07314522
105	0xbc7d81ba	-0.015472824
106	0xbd6ac5ca	-0.057317533
107	0x3d4fae09	0.050703082
108	0xbf022f82	-0.5085374
109	0x3cf387d0	0.029727846
110	0x3d551018	0.0520173
111	0x3dbc6721	0.09199358
112	0xbc07661c	-0.008264091
113	0x3d1df0ad	0.038559604
114	0xbd2368dd	-0.039894927
115	0x3d66ef44	0.056380525
116	0xbd5f77c4	-0.054557577
117	0xbe05f765	-0.13082655
118	0x3d32e017	0.04367074
119	0xbccaeb73	-0.024770474
120	0xbdf378da	-0.11888285
121	0x3c77f5ad	0.015134257
122	0xbbfc55e0	-0.007700667
123	0x3df722f8	0.12067217
124	0x3f11c5bd	0.5694235
125	0xbde49c87	-0.11162668
126	0x3c302ad5	0.010752399
127	0x3ddfc148	0.10925537
128	0xbe56416e	-0.20923397
129	0x3d04921b	0.0323659
130	0x3e90c9f3	0.28279075
131	0x3e0f142e	0.13972542
132	0xbc294f7e	-0.010333894
133	0x3dd8079f	0.105483286
134	0x3e25d38a	0.16193977
135	0xbd857005	-0.06515507
136	0xbd5f52d9	-0.05452237
137	0x3d6b1795	0.057395536
138	0x3d9cd9a9	0.07658703
139	0x3e8df8df	0.27728936
140	0xbcd5f9f3	-0.026120162
141	0x3e28ce89	0.16485037
142	0x3e34da6c	0.17661446
143	0xbf007905	-0.5018466
144	0xbd36b3e6	-0.04460516
145	0x3e301613	0.1719592
146	0x3e84f482	0.25967795
147	0x3e1abc30	0.1511085
148	0x3c7d31cd	0.015453768
149	0xbe01724d	-0.12641259
150	0x3cd0c221	0.025483193
151	0xbec17f4d	-0.37792435
152	0x3da048d1	0.078263886
153	0xbe343167	-0.1759697
154	0x3f346ff7	0.70483345
155	0x3dc80365	0.097662725
156	0x3ddd0a37	0.10792964
157	0x3d0aee55	0.033918697
158	0xbd4b65f1	-0.049657766
159	0xbe03aece	-0.12859651
160	0x3d9b46b8	0.07581848
161	0xbee069b3	-0.43830642
162	0xbd3f3447	-0.046680715
163	0xbe5de908	-0.21670926
164	0x3e59f495	0.21284707
165	0x3e5e83f0	0.21730018
166	0x3cb7447b	0.022371521
167	0x3ca1c751	0.019748362
168	0xbb8a0f67	-0.004213262
169	0xbea2384b	-0.31683573
170	0x3bdd4ed2	0.006753781
171	0xbca44ea6	-0.020057034
172	0x3e15e63a	0.14638606
173	0x3e165b96	0.14683375
174	0x3db1aad2	0.086751595
175	0xbe697bb5	-0.22801097
176	0x3eb84d95	0.3599669
177	0x3ee1b43f	0.4408283
178	0x3bcfe11b	0.0063439733
179	0xbe08cc19	-0.13359107
180	0xbdfb815e	-0.12280534
181	0x3d032a40	0.032022715
182	0x3e18850b	0.14894502
183	0x3dc87d22	0.09789492
184	0xbcee6eb7	-0.029105527
185	0x3ca7ee71	0.02049944
186	0x3e85edc8	0.26157975
187	0x3e59a760	0.21255255
188	0xbdb4ce9e	-0.088284716
189	0xbda575a8	-0.08079082
190	0x3e32ec26	0.17472896
191	0xbc58ab15	-0.013224383
192	0x3d4c6272	0.049898572
193	0x3e396c11	0.1810763
194	0xbcb378d0	-0.021908194
195	0x3e007497	0.12544475
196	0x3d472ce6	0.048626803
197	0x3da81fc6	0.08209185
198	0x3ddead38	0.108728826
199	0x3ddb942e	0.107216224
200	0x3e0c5bdc	0.13706917
201	0x3e208fb4	0.15679818
202	0xbe90073a	-0.28130513
203	0xbe87ca8f	-0.26521727
204	0xbcadbb49	-0.021207469
205	0x3e0adf92	0.13561848
206	0xbf90bb06	-1.1307075
207	0xbe21c55e	-0.15797946
208	0xbda026a5	-0.07819871
209	0xbcc7301b	-0.02431493
210	0x3caa4cf5	0.02078865
211	0x3d8a0a95	0.067402996
212	0xbdad7ac1	-0.08470679
213	0x3bc74964	0.006081747
214	0xbca4c4fc	-0.02011346
215	0x3d16d1aa	0.036821045
216	0x3dca7866	0.098862454
217	0xbd91cb34	-0.07118836
218	0x3d7bed7f	0.06150579
219	0x3e2f4c87	0.17119037
220	0xbf0d6298	-0.5522857
221	0x3d0563c7	0.03256586
222	0xbda02cfc	-0.0782108
223	0x3c1469c5	0.009058421
224	0xbccde96a	-0.025135715
225	0xbd2fd5a4	-0.042928353
226	0x3d971302	0.07376672
227	0x3df450c1	0.11929465
228	0xbf8afc01	-1.0858155
229	0x3e90b856	0.28265637
230	0xbd655a03	-0.055994045
231	0x3e03d6bb	0.12874882
232	0x3e3ba814	0.18325835
233	0xbdc358c6	-0.095384166
234	0x3e1c2d92	0.15251759
235	0x3d22c3a3	0.039737355
236	0xbd9757a2	-0.073897615
237	0xbd89a1c2	-0.06720306
238	0x3d18ecce	0.03733521
239	0x3eaa1047	0.33215544
240	0xbd4e2849	-0.050331388
241	0xbd7c1013	-0.061538767
242	0x3e6a2a66	0.22867736
243	0x3d79150a	0.06081108
244	0xbcd6d4d9	-0.02622454
245	0x3a1e4430	0.00060373824
246	0x3df64d80	0.12026501
247	0xbdf022d4	-0.11725393
248	0x3da3c7ec	0.079971164
249	0xbb6575db	-0.0035012874
250	0x3e67b2b4	0.22626764
251	0x3d82e013	0.06390395
252	0x3d8ed04e	0.06973325
253	0xbc424f32	-0.011859702
254	0x3e04000e	0.12890646
255	0xbf5cffd9	-0.8632789

fully_connected_layers.0.bias f4 [128]
0	0x3d8fe030	0.07025182
1	0xbd7706c4	-0.060309187
2	0x3dfdd7ee	0.12394701
3	0xbd257493	-0.040394377
4	0xbb741704	-0.0037245164
5	0xbe08cd14	-0.13359481
6	0xbe8e0a03	-0.27742013
7	0xbe4bfa12	-0.19919613
8	0xbdeeebf4	-0.11666098
9	0x3d484116	0.048890196
10	0x3dc0722e	0.09396778
11	0xbe9530a3	-0.2913867
12	0xbe95980e	-0.2921757
13	0x3e8b5cf0	0.27219343
14	0xbe386462	-0.18007043
15	0xbcc555f0	-0.02408883
16	0x3e95895d	0.29206362
17	0x3c83ecac	0.016104065
18	0xbe347932	-0.17624357
19	0xbd03dc62	-0.032192595
20	0xbd873bb8	-0.06603187
21	0x3cc625a3	0.024187868
22	0x3bf47a5b	0.007460875
23	0x3ae73d56	0.0017642181
24	0x3c01cf30	0.0079229325
25	0xbe499e06	-0.19689187
26	0x3bfc8f3e	0.0077075055
27	0xbe8dbda4	-0.27683747
28	0x3de20fc4	0.11038163
29	0xbe7a4b4c	-0.24442786
30	0x3da4d0b0	0.080476165
31	0xbd1e0be2	-0.03858555
32	0xbdd4f28a	-0.10397823
33	0xbd7c2be0	-0.06156528
34	0x3e1f750d	0.15571995
35	0xbd4f996f	-0.050683435
36	0xbe439954	-0.19101459
37	0xbe7f71e9	-0.24945797
38	0xbe2e3698	-0.17013013
39	0xbea79e14	-0.32737792
40	0xbedf7c88	-0.43649697
41	0xbd451936	-0.048119746
42	0x3c577dbb	0.013152535
43	0x3d8da6e5	0.06916598
44	0xbe24048f	-0.16017364
45	0xbd934a71	-0.07191933
46	0xbdd0edbb	-0.102015935
47	0xbd9dd823	-0.077072404
48	0xbec95fb6	-0.39330834
49	0xbe170242	-0.14746955
50	0xbee433e8	-0.4457085
51	0x3dab725a	0.0837142
52	0x3e259b25	0.16172464
53	0xbdb25b73	-0.08708849
54	0x3ecdb8b8	0.40179992
55	0xbc8a9408	-0.01691629
56	0x3c096b32	0.008387374
57	0xbcf43a4c	-0.029812954
58	0x3c6d7451	0.014493064
59	0x3ebc162d	0.3673567
60	0x3e424c1f	0.1897435
61	0xbde52ccb	-0.11190184
62	0x3e524404	0.20533758
63	0xbea96c65	-0.3309051
64	0xbe827615	-0.25480714
65	0xbe3c9f88	-0.18420231
66	0x3e90e944	0.28302968
67	0xbe3c2288	-0.18372548
68	0x3ec9e0b0	0.39429235
69	0xbbbf6f9f	-0.0058421637
70	0x3e55d0b1	0.2088039
71	0xbd743457	-0.059620228
72	0xbf0085f0	-0.5020437
73	0xbe809387	-0.25112554
74	0x3e049400	0.12947083
75	0xbd15d94f	-0.036584195
76	0x3e4cf03e	0.2001352
77	0xbd95ddfa	-0.07317729
78	0x3db85cf9	0.09002108
79	0xbec39a78	-0.38203788
80	0xbe86b4df	-0.2630987
81	0xbe89f8a9	-0.26947525
82	0xbcbd2d89	-0.023093002
83	0xbea25fd4	-0.31713736
84	0xbd097951	-0.033562962
85	0xbd3a6370	-0.045504987
86	0xbe62ea72	-0.22159746
87	0xbe2840ed	-0.16431017
88	0xbe167b2a	-0.14695421
89	0xbdac1960	-0.084032774
90	0xbe45de30	-0.19323039
91	0xbe65b1df	-0.22431134
92	0xbdd4e5cf	-0.10395395
93	0x3b94834d	0.004532254
94	0xbe68f8fc	-0.2275123
95	0x3dc7b1ff	0.09750747
96	0xbbb45e1d	-0.0055043832
97	0x3dc1a34a	0.09454973
98	0xbd4b9404	-0.049701706
99	0xbea1f67c	-0.31633365
100	0xbebad0c4	-0.364874
101	0x3e41b40a	0.18916336
102	0x3d76e14e	0.06027346
103	0xbc03c9a7	-0.008043683
104	0xbe82f2d0	-0.25575876
105	0xbdc495c5	-0.09598879
106	0x3e4fded2	0.20299843
107	0xbdd2c359	-0.10291166
108	0xbd89d9d8	-0.067310035
109	0xbe13ca7a	-0.14432707
110	0xbc06398c	-0.008192431
111	0x3dc057ee	0.09391771
112	0x3e29e7a8	0.16592276
113	0xbe320eb6	-0.17388424
114	0x3e1c8a21	0.15287067
115	0x3e2ce347	0.16883574
116	0xbeb51dc0	-0.3537426
117	0x3df30983	0.118670486
118	0x3e14ff8d	0.1455061
119	0xbd5a324e	-0.05327063
120	0xbe2666d0	-0.16250157
121	0x3dca4833	0.09877052
122	0x3e3595ee	0.17732975
123	0xbe8aea3c	-0.27131832
124	0x3e49e8c8	0.19717705
125	0xbda682d5	-0.08130423
126	0xbd35c698	-0.044378847
127	0xbe24dcc1	-0.16099836

fully_connected_layers.1.weight f4 [64, 154]
0	0xbdc18485	-0.09449104
1	0xbde6024c	-0.11230907
2	0x3de54121	0.11194063
3	0xbe00f9f4	-0.1259535
4	0x3de296ce	0.1106392
5	0x3da0c45e	0.07849954
6	0xbd1ae2ad	-0.03781383
7	0xbe195e6c	-0.14977425
8	0xbe321b4f	-0.1739323
9	0xbbcdd005	-0.0062809014
10	0x3d943d02	0.07238199
11	0xbddfce3a	-0.109280065
12	0xbd88534b	-0.06656512
13	0x3e845964	0.2584945
14	0x3d0ce5f3	0.034398984
15	0xbc89bd1a	-0.016813803
16	0xbd9ef285	-0.07761101
17	0xbd8b134e	-0.067907915
18	0x3da1d3c9	0.07901723
19	0xbe2664d7	-0.16249405
20	0xbd4ea8a1	-0.050453786
21	0xbe6912ae	-0.22761032
22	0x3d80ac42	0.062828556
23	0xbd5b8654	-0.053594902
24	0x3e937afb	0.28804764
25	0xbd013b29	-0.03155056
26	0xbce3fb3f	-0.027829764
27	0xbed0cb91	-0.4078031
28	0x3e4a26c0	0.19741344
29	0xbd450b2e	-0.048106365
30	0x3e36e767	0.1786171
31	0x3dee97fb	0.11650082
32	0xbe28bd04	-0.16478354
33	0xbd2b009a	-0.04174862
34	0xbe3d0dc3	-0.18462281
35	0x3de89bdf	0.11357855
36	0xbf0f2243	-0.55911654
37	0x3dbe4815	0.09291092
38	0xbd981bc4	-0.07427171
39	0xbec4eddf	-0.3846273
40	0xbda0049f	-0.078133814
41	0x3ead8868	0.33893132
42	0xbdd0e874	-0.10200587
43	0x3de6dbd2	0.11272396
44	0xbbfe1356	-0.00775377
45	0xbe87382a	-0.26410037
46	0xbead2203	-0.3381501
47	0xbe3b535e	-0.18293521
48	0xbd4a51a3	-0.04939426
49	0x3d8f2662	0.06989743
50	0xbdc7ec0b	-0.097618185
51	0xbe878b94	-0.26473677
52	0xbea265ac	-0.31718194
53	0xbe8ca0ee	-0.2746653
54	0xbe4a9b17	-0.19785725
55	0x3cfbd9b2	0.030743454
56	0xbe643bf7	-0.222885
57	0xbd0a5fa5	-0.03378262
58	0xbe853485	-0.26016632
59	0xbe99709a	-0.2996872
60	0x3e73890b	0.23782746
61	0xbc6c9a44	-0.014441077
62	0xbdc3dcaf	-0.095635764
63	0x3ca49e65	0.02009506
64	0x3e8ca28f	0.27467772
65	0x3d3f925b	0.046770435
66	0xbe7ca115	-0.24670823
67	0x3dc04cb4	0.0938963
68	0x3d61b607	0.055105235
69	0x3cb15826	0.021648478
70	0xbe80d64f	-0.25163504
71	0x3def7e9a	0.11694069
72	0xbe694c3b	-0.22782986
73	0xbcaaf258	-0.020867512
74	0xbf10cbbe	-0.56560886
75	0x3da12414	0.078682095
76	0xbea50532	-0.32230526
77	0x3e052198	0.13001096
78	0xbe8e6783	-0.27813348
79	0xbd70bc9d	-0.058773626
80	0x3e24f327	0.1610838
81	0xbd9a61f1	-0.07538212
82	0x3d68b7e9	0.056816015
83	0x3ddf050e	0.10889636
84	0xbdf453f0	-0.11930072
85	0xbdc9f7f2	-0.09861745
86	0x3d99b3ac	0.07504973
87	0x3ee0b30a	0.43886596
88	0x3d08779d	0.033317197
89	0xbda64902	-0.08119394
90	0xbe6d93fe	-0.23200986
91	0xbd1f8185	-0.03894188
92	0x3de69765	0.11259345
93	0xbdb7b6f2	-0.08970441
94	0xbbfa5237	-0.0076391953
95	0xbdc87bcd	-0.09789238
96	0x3d1e6c9b	0.038677793
97	0x3c99d721	0.01877934
98	0x3da15305	0.07877163
99	0x3e875ff4	0.26440394
100	0xbe881780	-0.2658043
101	0xbe8cf807	-0.2753298
102	0xbc163246	-0.00916726
103	0xbe3e06cd	-0.18557282
104	0x3e1a3cda	0.15062276
105	0xbe0f25ec	-0.1397931
106	0xbc9f37c0	-0.019435763
107	0xbde3a18c	-0.11114797
108	0xbe0842d8	-0.13306749
109	0xbd887aa9	-0.066640206
110	0xbcd3996f	-0.025829999
111	0xbcaa60c1	-0.020798089
112	0xbe166025	-0.14685114
113	0x3d568881	0.052376274
114	0xbd821db2	-0.0635332
115	0xbe77c749	-0.24197115
116	0x3d94fd11	0.07274831
117	0xbec4b55e	-0.38419622
118	0xbeb2b791	-0.34905675
119	0x3e1b1443	0.15144448
120	0xbcb0e800	-0.021595001
121	0xba9e1803	-0.0012061599
122	0x3d95829d	0.07300303
123	0x3e1f0893	0.15530615
124	0x3d955149	0.072908945
125	0xbe1c54ff	-0.15266798
126	0xbd3ee330	-0.04660338
127	0xbe2acb88	-0.16679204
128	0xbdfaaeb9	-0.12240357
129	0x3d8e73c6	0.06955676
130	0xbda9152a	-0.0825599
131	0x3ec6a046	0.38794154
132	0xbdc8c5b8	-0.09803337
133	0x3dc814a7	0.09769564
134	0x3d80ae4e	0.06283246
135	0x3ea6300b	0.3245853
136	0x3c842236	0.016129594
137	0xbec678f9	-0.3876417
138	0x3e283fc0	0.16430569
139	0xbeb126f1	-0.34600022
140	0x3c56c1a9	0.013107696
141	0xbe0c5eec	-0.13708085
142	0x3c8061b9	0.015671598
143	0x3dc4902c	0.09597811
144	0xbead72f6	-0.3387677
145	0xbd27a284	-0.04092647
146	0x3e60bfb5	0.2194813
147	0x3e346355	0.17616017
148	0x3c0c5fea	0.00856779
149	0xbe9996fa	-0.29997998
150	0x3bf1e0d7	0.0073815393
151	0xbe4474af	-0.19185136
152	0x3d9f19b8	0.07768577
153	0xbe403286	-0.18769273
154	0x3d26198d	0.04055171
155	0xbd9184ef	-0.07105433
156	0xbda71506	-0.08158307
157	0x3d4e3666	0.050344847
158	0xbe3c0e9d	-0.1836495
159	0xbda292ca	-0.07938154
160	0x3d887ae0	0.066640615
161	0x3d6c5f08	0.057707816
162	0x3e173782	0.14767268
163	0x3c80ebd5	0.015737453
164	0x3d7c5073	0.06160016
165	0x3c89835c	0.01678627
166	0xbe23987c	-0.15976137
167	0xbf133056	-0.5749563
168	0xbdacfa9b	-0.08446237
169	0xbd640a1c	-0.055673704
170	0x3e7def82	0.24798396
171	0xbb6eb4fb	-0.003642379
172	0x3d7f0e86	0.06226971
173	0x3da6117b	0.08108803
174	0xbe548556	-0.20753989
175	0xbf398e55	-0.72482806
176	0xbd357b62	-0.04430712
177	0x3e058742	0.13039878
178	0x3fb9d37f	1.4517668
179	0x3e27d4fc	0.16389841
180	0x3deabce1	0.11461807
181	0x3e94bbef	0.29049632
182	0x3e020d3d	0.12700363
183	0xbd9913af	-0.074744575
184	0xbe4130a8	-0.18866217
185	0x3e031fc4	0.12805086
186	0xbdbb0b18	-0.09132975
187	0x3ccccd1d	0.02500015
188	0xbd092c29	-0.03348938
189	0x3e604c08	0.21904004
190	0x3e22c6fa	0.15896216
191	0xbdaaa5c1	-0.08332396
192	0xbf2811b8	-0.65652037
193	0x3e1cad34	0.15300447
194	0x3e066a12	0.131264
195	0x3c146e35	0.0090594785
196	0xbe437aa7	-0.19089757
197	0x3cf416c8	0.02979602
198	0xbe39fbea	-0.18162504
199	0x3e025d63	0.12730937
200	0xbafccb12	-0.0019286594
201	0x3d5eb0fc	0.054368004
202	0x3e81b45f	0.25332925
203	0xbe5aafef	-0.21356176
204	0xbdedec81	-0.11617375
205	0x3dec93eb	0.115516506
206	0xbc8ca61d	-0.017169053
207	0x3b3f2b66	0.0029170155
208	0xbf4e22ce	-0.8052186
209	0xbe2f6627	-0.17128812
210	0xbd0d5715	-0.034506876
211	0xbd0dc05b	-0.034607273
212	0x3e47df6f	0.19518827
213	0x3c95a0b4	0.018265106
214	0x3d566dba	0.052350737
215	0x3d2f73ad	0.042834926
216	0x3d993998	0.07481688
217	0x3d145ae0	0.036219478
218	0x3e44168d	0.19149227
219	0x3d4b36ee	0.049612932
220	0xbdc99310	-0.09842503
221	0xbef9acd2	-0.48764664
222	0xbf126478	-0.57184553
223	0xbd895391	-0.06705392
224	0x3df203d1	0.11817134
225	0xbdcce694	-0.10004917
226	0x3e69a413	0.22816496
227	0x3ec47c2b	0.38375983
228	0xbe0126e7	-0.12612496
229	0xbe18fca8	-0.1494013
230	0xbd3f00db	-0.046631675
231	0xbe977e96	-0.29588765
232	0x3cd2cc9a	0.025732327
233	0xbc62fbc8	-0.013853975
234	0xbdd58929	-0.10426552
235	0xbdbf83b3	-0.093512915
236	0x3de818eb	0.11332878
237	0xbea818b4	-0.32831347
238	0x3f04549e	0.51691616
239	0x3e4ead96	0.20183405
240	0x3eb92070	0.3615756
241	0x3d1ec8ff	0.038765904
242	0x3e93b8cf	0.28851935
243	0xbda3c9a4	-0.07997444
244	0xbe3acbda	-0.18241826
245	0xbc730f6d	-0.014835221
246	0x3e35aecc	0.17742461
247	0xbdb3b63f	-0.08774995
248	0x3ec1fd26	0.3788845
249	0x3dedb7b1	0.11607302
250	0xbe249eff	-0.16076277
251	0xbd8369f5	-0.06416694
252	0x3c37a51f	0.0112088015
253	0x3dcf3c78	0.101189554
254	0x3ebb64dc	0.36600387
255	0xbf04cd2b	-0.5187556

fully_connected_layers.1.bias f4 [64]
0	0xbc9e6299	-0.019334124
1	0x3dd2a6f8	0.10285753
2	0xbe71ea02	-0.23624423
3	0xbdc3ce36	-0.09560816
4	0xbe0462d3	-0.12928323
5	0xbdc69536	-0.096964285
6	0x3c46c11c	0.012131002
7	0x3d368c22	0.044567235
8	0xbe308fc7	-0.17242347
9	0xbe209a29	-0.15683807
10	0x3e3d61d3	0.18494348
11	0x3d01bfae	0.03167694
12	0xbd7d0976	-0.0617766
13	0xbc8e6462	-0.01738185
14	0x3ded8bec	0.115989536
15	0xbe398ccc	-0.18120116
16	0xbcbcbad6	-0.023038309
17	0x3e51e202	0.20496371
18	0xbd913a81	-0.07091237
19	0xbd9fa1b8	-0.07794517
20	0x3e358b07	0.17728816
21	0xbe159fe3	-0.14611773
22	0x3cd05e9f	0.025435744
23	0xbe2bc5bf	-0.16774653
24	0x3e8af8be	0.271429
25	0x3e7cd151	0.24689223
26	0x3de62620	0.112377405
27	0xbe8903b9	-0.26760653
28	0xbd6cdaf7	-0.05782601
29	0xbbeec73a	-0.0072869333
30	0xbc290e54	-0.0103183575
31	0xbe25c425	-0.16188104
32	0xbe80e16a	-0.25171977
33	0x3c04d097	0.008106372
34	0xbd4cec89	-0.050030265
35	0x3df89cc9	0.121392794
36	0xbd9b02ad	-0.0756887
37	0xbe278b26	-0.16361675
38	0x3c9d14e9	0.01917501
39	0x3d5057d8	0.050865024
40	0x3e21784b	0.15768544
41	0xbd28affe	-0.041183464
42	0x3cf5d839	0.03001033
43	0x3cba0737	0.022708518
44	0x3e044c82	0.1291981
45	0xbe33c1ad	-0.1755435
46	0x3db87c2f	0.09008061
47	0xbcdd032c	-0.026979052
48	0x3b827956	0.0039817495
49	0x3dd8ebe8	0.105918705
50	0xbe7c3bbb	-0.2463216
51	0xbd5a9bc4	-0.053371206
52	0x3d812ef0	0.06307781
53	0xbd7412c7	-0.05958822
54	0xbde32171	-0.11090363
55	0x3d503e53	0.050840687
56	0xbdfb07c8	-0.122573435
57	0xbe3a93a7	-0.18220387
58	0xbeac0aa4	-0.33601868
59	0xbe370e0d	-0.17876454
60	0xbe34d73e	-0.17660233
61	0xbd66a632	-0.05631084
62	0xbc3bf068	-0.011470892
63	0xbcd4389b	-0.025905898

fully_connected_layers.2.weight f4 [64, 90]
0	0x3cce43fb	0.0251789
1	0x3e73e627	0.23818265
2	0x3b37b7cb	0.0028033133
3	0xbdd39947	-0.1033197
4	0xbe04857a	-0.12941542
5	0xbf2ff6d3	-0.68736
6	0x3d4a95f4	0.049459413
7	0xbdb9c979	-0.09071631
8	0xbd9d30ff	-0.07675361
9	0x3ea507ba	0.32232457
10	0x3df54ad5	0.11977164
11	0xbe43ac57	-0.19108711
12	0xbd3f88c5	-0.046761293
13	0xbee2a5f5	-0.4426724
14	0xbda549b1	-0.08070696
15	0xbdb9361b	-0.09043523
16	0x3d98efec	0.074676365
17	0x3e783021	0.2423711
18	0xbd2eee10	-0.042707503
19	0xbc9db5fa	-0.019251812
20	0xbd174a40	-0.036936045
21	0xbea4b651	-0.32170346
22	0xbd92d79d	-0.07170031
23	0x3bb735a6	0.005591112
24	0x3e654a9f	0.22391747
25	0x3d29fc6d	0.041500498
26	0xbdb3f0e6	-0.08786182
27	0x3cfbd23c	0.030739896
28	0xbe88e455	-0.26736704
29	0xbd1d7593	-0.038442206
30	0x3d8852da	0.06656428
31	0xbe45a11d	-0.19299741
32	0x3e197215	0.14984925
33	0xbe086806	-0.13320932
34	0x3e155afe	0.14585492
35	0xbeb5c2af	-0.35500094
36	0xbd259b7a	-0.040431477
37	0xbd832f7b	-0.064055406
38	0x3e5671cd	0.20941849
39	0xbe987112	-0.29773766
40	0x3e254f10	0.16143441
41	0xbd452819	-0.048133943
42	0x3e2d19de	0.16904399
43	0xbe7bccc4	-0.2458983
44	0xbceb9b3d	-0.028760547
45	0x3b954fa0	0.004556611
46	0xbc82911e	-0.015938338
47	0xbca9466f	-0.020663468
48	0xbe7a8737	-0.24465643
49	0x3c8d7226	0.017266344
50	0xbda6a302	-0.0813656
51	0xbe1fc741	-0.15603353
52	0xbc86d1e3	-0.016457504
53	0xbbb1dfc6	-0.005428287
54	0xbee0ced4	-0.43907797
55	0xbdc67d49	-0.09691865
56	0x3d9d84ab	0.0769132
57	0x3df580bb	0.11987444
58	0xbeb38327	-0.35061
59	0xbc903148	-0.017601624
60	0x3d4c975d	0.04994904
61	0xbd2bb026	-0.041916035
62	0x3e9f2766	0.31084746
63	0x3d556efb	0.052107792
64	0x3b98b0e8	0.0046597607
65	0xbd668186	-0.056275867
66	0xbe6cfa78	-0.23142421
67	0xbcaf4401	-0.021394731
68	0xbe9c0e72	-0.3047977
69	0xbcf2c3ce	-0.029634383
70	0xbda4299a	-0.08015747
71	0xbea18007	-0.3154299
72	0xbe95ce6f	-0.2925906
73	0x3e67a9cf	0.2262337
74	0xbe42f3a1	-0.1903825
75	0xbf0784ff	-0.5293731
76	0xbe9c51c2	-0.30531126
77	0x3d6e6f0c	0.05821137
78	0xbdb9db65	-0.09075049
79	0x3e25ebbe	0.1620321
80	0x3e51f156	0.20502219
81	0xbe1a688c	-0.15078944
82	0xbd8506cf	-0.06495439
83	0x3d70b66d	0.058767725
84	0xbe1d7be0	-0.15379286
85	0x376a4d7c	1.3965528e-05
86	0xbe2777c6	-0.16354284
87	0xbe6fd9f3	-0.23422985
88	0x3e9f7d7f	0.31150433
89	0xbe718f18	-0.23589742
90	0x3e157759	0.14596309
91	0x3d98a9ba	0.07454248
92	0xbd8b8c76	-0.068139
93	0xbb6bafe9	-0.0035963005
94	0x3d839dd9	0.064265914
95	0xbe9b0210	-0.3027501
96	0x3d62fae7	0.05541506
97	0x3e033321	0.12812473
98	0x3d19a588	0.03751138
99	0x3e0ca1be	0.13733575
100	0x3d246f0d	0.04014497
101	0xbd64a6fa	-0.055823304
102	0xbdc4bb3f	-0.09606027
103	0x3cc1a1cf	0.023636727
104	0x3cf21d99	0.029555129
105	0x3d31af00	0.043379784
106	0x3d035326	0.03206172
107	0x3d1ee603	0.038793575
108	0xbcf2e4b7	-0.029650075
109	0xbd2b509d	-0.041824926
110	0xbe17e8d2	-0.14834908
111	0xbe535e9a	-0.20641556
112	0x3b759257	0.0037471259
113	0xbd7b2207	-0.061311748
114	0x3eda5ef2	0.42650563
115	0x3df5c566	0.120005414
116	0x3e6e8e41	0.23296453
117	0xbd3276f2	-0.043570466
118	0xbec8ed00	-0.39243317
119	0x3da637e7	0.08116131
120	0x3db2f927	0.08738928
121	0x3d9b880d	0.07594309
122	0xbd97cbf5	-0.074119486
123	0xbdebad29	-0.11507637
124	0x3df12ffc	0.117767304
125	0x3cf9b60f	0.03048232
126	0xbdce64ca	-0.10077818
127	0xbc1fb485	-0.009747629
128	0x3df1db69	0.11809427
129	0xbe880c41	-0.2657185
130	0x3d0ef816	0.034904562
131	0xbb80c4ca	-0.003929709
132	0x3da074b5	0.0783476
133	0x3dd0ef28	0.102018654
134	0x3cd4ecb6	0.025991779
135	0xbe31aad5	-0.17350323
136	0x3d1b730f	0.037951525
137	0xbe778b24	-0.24174172
138	0x3e111d7d	0.14171405
139	0xbe40e93c	-0.18838972
140	0xbe10c659	-0.14138164
141	0xbe4e7c12	-0.20164517
142	0xbe25193e	-0.1612291
143	0x3d59b534	0.053151324
144	0xbd327345	-0.04356696
145	0x3df1a2ba	0.11798616
146	0x3e2a2520	0.16615725
147	0xbe1d7caa	-0.15379587
148	0xbe1c1bdd	-0.15245004
149	0x3cceef5c	0.02526062
150	0xbd878629	-0.06617386
151	0xbba17839	-0.0049276617
152	0x3dc6237f	0.09674739
153	0x3c0d1ea2	0.00861326
154	0x3e8940be	0.26807207
155	0x3c08c186	0.008346921
156	0xbd5206cd	-0.051276017
157	0x3e1faeb4	0.15593988
158	0x3d0b3489	0.03398565
159	0x3c815a59	0.015790151
160	0xbcd35cab	-0.025801023
161	0xbe04429d	-0.12916036
162	0x3e0f913e	0.14020249
163	0xbdd53c08	-0.10411841
164	0xbdf22bd7	-0.11824768
165	0xbd71f1a1	-0.059068326
166	0x3dc3afa0	0.09554982
167	0x3d93661e	0.07197212
168	0xbdea71ee	-0.114475116
169	0x3e27421e	0.16333815
170	0x3ebcc944	0.36872303
171	0x3be92359	0.0071148095
172	0xbdfaa6e7	-0.12238865
173	0x3dcc6c2d	0.099815704
174	0xbea6246d	-0.32449666
175	0xbd9ef431	-0.077614196
176	0xbe118388	-0.14210331
177	0xbe36d64e	-0.17855188
178	0x3dcdd847	0.10051017
179	0xbdd5ebf9	-0.10445399
180	0x3d96b4a6	0.07358675
181	0x3ea796b1	0.32732156
182	0x3cb78b01	0.02240515
183	0x3d0aef77	0.033919778
184	0xbd5b7997	-0.053582754
185	0xbda94715	-0.08265511
186	0xbd7282c0	-0.059206724
187	0xbdbf9d9a	-0.09356232
188	0x3d622a38	0.055216044
189	0x3e7ee733	0.24892883
190	0x3cc0ad66	0.023520183
191	0xbe676174	-0.22595769
192	0xbdc9d34c	-0.09854755
193	0x3d8723b7	0.06598609
194	0xbc7f9237	-0.015598825
195	0xbe6e9a04	-0.2330094
196	0x3e1a4012	0.15063503
197	0x3e7b5da5	0.24547441
198	0xbcdf90ba	-0.02729069
199	0x3d8baa1a	0.06819554
200	0x3d587884	0.052849308
201	0xbe173d0c	-0.14769381
202	0xbcf6c98a	-0.030125398
203	0x3d6a20b1	0.057160083
204	0xbde2e87c	-0.11079499
205	0x3e3f951a	0.18709221
206	0x3d7158ac	0.058922455
207	0xbe15d067	-0.1463028
208	0x3d9b7f29	0.07592613
209	0xbd85b487	-0.065285735
210	0xbd3294ac	-0.043598816
211	0x3e5d1a50	0.21592069
212	0xbd05807e	-0.032593243
213	0x3cb96834	0.022632696
214	0xbde50f9c	-0.11184618
215	0xbe1ccf8e	-0.15313551
216	0xbcfb2498	-0.030657098
217	0x3c5398ff	0.012914895
218	0x3e0547ef	0.13015722
219	0xbcbb2d37	-0.022848709
220	0xbe1c70ea	-0.15277448
221	0x3d23e2d8	0.040011257
222	0xbdb1f302	-0.08688928
223	0xbe21a42b	-0.15785281
224	0x3e71bbee	0.23606846
225	0x3c151616	0.009099504
226	0xbdcbfe16	-0.099605724
227	0xbd5e479d	-0.054267514
228	0x3df4bdf0	0.1195029
229	0xbe36d6f5	-0.17855437
230	0xbe2756a7	-0.16341649
231	0xbcdb558f	-0.026774196
232	0x3e53bc1c	0.20677227
233	0x3cdc99f3	0.026928877
234	0xbc2be8fc	-0.0104925595
235	0xbe3cb35d	-0.18427797
236	0x3cf4bbb0	0.029874653
237	0xbe54aca3	-0.2076898
238	0xbdd9d6f5	-0.10636703
239	0xbd92e8e7	-0.07173329
240	0x3d3df7f2	0.046379037
241	0x3c7cb394	0.015423674
242	0xbe813447	-0.25235197
243	0x3e45e94e	0.1932728
244	0xbe08c6d6	-0.133571
245	0xbe0620e6	-0.13098487
246	0xbd136369	-0.035983477
247	0x3b5590da	0.003258756
248	0x3dd408e9	0.10353262
249	0x3e00c2da	0.1257433
250	0x3e455fb4	0.19274789
251	0xbe29a787	-0.16567813
252	0xbdfae875	-0.12251369
253	0xbddd91c4	-0.10818818
254	0x3dc3f70b	0.09568604
255	0x3dd0ffc0	0.102050304

fully_connected_layers.2.bias f4 [64]
0	0xbec72317	-0.3889396
1	0xbd339feb	-0.04385368
2	0xbe748816	-0.23880038
3	0x3d240cd7	0.040051308
4	0xbdd5bf30	-0.10436857
5	0xbddbcdcb	-0.10732611
6	0xbdb5498a	-0.08851917
7	0xbd16a50b	-0.03677849
8	0xbcdeca6a	-0.027196128
9	0xbe617753	-0.22018175
10	0xbcbf9a18	-0.023388907
11	0xbe50d054	-0.20391971
12	0x3e82f8a8	0.25580335
13	0x3cee9f77	0.029128773
14	0x3e255ed6	0.16149458
15	0xbdad9a48	-0.084766924
16	0xbd227ca4	-0.039669648
17	0xbd6de484	-0.058079258
18	0xbe8960bf	-0.26831624
19	0xbe8a870f	-0.27056167
20	0x3e8bb17f	0.27283856
21	0xbdb55b92	-0.08855356
22	0x3dee4f9e	0.116362795
23	0xbb825c9e	-0.003978326
24	0x3dbbfb26	0.09178762
25	0xbe0c7c4e	-0.13719293
26	0x3d1fe71d	0.039038766
27	0xbd67f8eb	-0.05663387
28	0x3ef7fc20	0.48434544
29	0x3e9f2820	0.310853
30	0x3d759262	0.059954055
31	0xbeb9e07c	-0.3630408
32	0x3dc402d8	0.09570855
33	0xbe31a36f	-0.17347501
34	0x3c4ccf5e	0.012500612
35	0xbd819587	-0.06327348
36	0x3e493d4c	0.19652289
37	0x3e57de8b	0.21080987
38	0xbe726b91	-0.23673846
39	0x3e49cb9a	0.19706574
40	0x3dcb9a6f	0.09941565
41	0x3cb79139	0.022408115
42	0x3e6c0931	0.23050381
43	0xbe3da574	-0.18520147
44	0xbda180d6	-0.07885902
45	0x3e50f5c5	0.20406254
46	0xbd984fa2	-0.07437064
47	0xbe81a865	-0.25323787
48	0x3e764f88	0.24053776
49	0xbe354f34	-0.17705995
50	0xbd87c893	-0.06630053
51	0xbc3854e2	-0.011250706
52	0xbe951f89	-0.29125622
53	0xbb36cf58	-0.0027894583
54	0xbe1a0896	-0.15042338
55	0x3d765131	0.060136024
56	0x3c4ff54b	0.01269276
57	0xbe739c85	-0.23790176
58	0xbe41354e	-0.1886799
59	0xbe139198	-0.14411008
60	0x3e294069	0.16528477
61	0xbdd939c2	-0.106067196
62	0xbcfc314b	-0.030785223
63	0xbec7aa4b	-0.3899711

fully_connected_layers.3.weight f4 [32, 90]
0	0xbe0218f2	-0.12704828
1	0x3d19baed	0.037531782
2	0x3db5ca01	0.0887642
3	0x3e0dc6f8	0.13845432
4	0xbd264b08	-0.0405989
5	0xbd3d3036	-0.046188556
6	0xbd736abb	-0.059427958
7	0x3bf0f678	0.0073536
8	0x3e11b6cf	0.14229892
9	0x3e086842	0.13321021
10	0x3d25de87	0.04049542
11	0xbdee6bf9	-0.11641688
12	0x3d762409	0.06009296
13	0x3be62fec	0.0070247557
14	0xbcbd2699	-0.023089694
15	0x3e2cfc30	0.16893077
16	0xbda6dccf	-0.08147585
17	0x3e18f37e	0.14936635
18	0x3d6d641e	0.057956807
19	0x3b826021	0.0039787446
20	0x3de583ac	0.11206755
21	0x3c1c1ace	0.009527875
22	0xbd83cef8	-0.064359605
23	0xbe228d25	-0.15874155
24	0x3de617d7	0.11235016
25	0x3e0768d0	0.13223577
26	0x3d8cb1fd	0.06869886
27	0x3cd91754	0.026500382
28	0xbe15265c	-0.14565414
29	0xbe104ddc	-0.14092201
30	0xbbcca677	-0.00624543
31	0x39d5ce2e	0.00040780142
32	0x3cd69354	0.026193298
33	0x3d5f50c3	0.05452038
34	0xbcf75908	-0.03019382
35	0x3da7ecff	0.081995
36	0x3e2f1054	0.17096072
37	0xbb7bb54b	-0.003840762
38	0xbde8125a	-0.11331625
39	0x3d34bd11	0.04412562
40	0xbd897df7	-0.06713479
41	0x3e51f9ae	0.20505401
42	0x3e20c774	0.15701085
43	0x3cb2cc34	0.021825887
44	0xbe45a1d8	-0.1930002
45	0x3e0b1087	0.13580523
46	0x3ac2f658	0.0014874442
47	0x3e20221b	0.1563801
48	0x3e18285f	0.1485915
49	0x3dd2b6a5	0.10288743
50	0x3e3b59f7	0.18296038
51	0x3e181019	0.14849891
52	0xbc06f80c	-0.00823785
53	0x3d963066	0.0733345
54	0xbc78d95e	-0.015188543
55	0x3d1c7d8e	0.038205676
56	0x3c978512	0.01849607
57	0xbb57f236	-0.0032950765
58	0xbda7269a	-0.081616595
59	0x3ddfebaf	0.10933625
60	0xbddbe747	-0.10737472
61	0x3e8184e3	0.25296697
62	0x3d86ca47	0.0658155
63	0xbbe9784c	-0.007124936
64	0xba8861ca	-0.001040512
65	0xbdc01541	-0.09379054
66	0x3df9356c	0.121683925
67	0xbda060b0	-0.07830942
68	0xbd834ab5	-0.064107336
69	0xbde3cb75	-0.11122791
70	0x3d72c8d7	0.059273567
71	0xbdd1cf65	-0.102446355
72	0x3d9ad53a	0.07560201
73	0x3de0d428	0.109779656
74	0xbd678ae6	-0.05652895
75	0xbdd86ef0	-0.10568035
76	0x3d913a67	0.070912175
77	0x3d7627fb	0.060096722
78	0x3bd4c8f3	0.0064936816
79	0x3de9b5ff	0.11411666
80	0x3da7b244	0.08188298
81	0x3e016f60	0.12640142
82	0xbe25bcc1	-0.16185285
83	0x3c976a5b	0.018483331
84	0x3e34a564	0.17641217
85	0x3d95a4fc	0.07306859
86	0xbd074ffc	-0.033035263
87	0x3dc55ae2	0.09636475
88	0x3df1cf5a	0.11807127
89	0x3e6380e6	0.2221714
90	0xbda38f20	-0.07986283
91	0x3c46ecb2	0.0121413935
92	0x3c0ba82d	0.008523983
93	0xbd02807f	-0.031860825
94	0x3e3f89d3	0.1870492
95	0xbba85d47	-0.0051380727
96	0x3b39f8e1	0.0028377103
97	0x3cdbd5b5	0.026835302
98	0x3de63d7a	0.112421945
99	0x3df9d013	0.1219789
100	0xbc9dd77a	-0.019267786
101	0xbd7f18c4	-0.062279478
102	0x3c9d1ebc	0.019179694
103	0x3cfde116	0.030991118
104	0x3c771e43	0.015082899
105	0x3e38389a	0.17990342
106	0x3d6a5b53	0.057216
107	0xbce8597f	-0.028362988
108	0x3ccd07f2	0.025028203
109	0x3cbf1f79	0.023330437
110	0xbe25a910	-0.16177773
111	0x3ce2d24f	0.027688174
112	0xbd8af352	-0.06784691
113	0x3d85a4e7	0.06525593
114	0x3d147f0c	0.036253974
115	0x3dced5b0	0.100993514
116	0x3e1e98c2	0.1548796
117	0x3d1f463b	0.038885336
118	0xbd1b5899	-0.03792629
119	0xbd828d28	-0.0637458
120	0xbe556cb4	-0.20842248
121	0x3ddf3618	0.108989894
122	0x3cb1816f	0.021668164
123	0x3d280802	0.04102326
124	0x3dfb6324	0.12274769
125	0x3d174e9f	0.036940213
126	0xbdfe78be	-0.124253735
127	0x3e037cbd	0.12840553
128	0xbd981b4a	-0.0742708
129	0xbb2629e6	-0.0025354563
130	0xbd51d02a	-0.05122391
131	0xbbb633a4	-0.0055603553
132	0x3b72f0ef	0.0037069877
133	0xbcba6103	-0.022751337
134	0x3e09dfca	0.13464275
135	0x3cc9b9ae	0.024624672
136	0xbd1ef6de	-0.03880965
137	0x3dbaeae2	0.091268316
138	0x3cb5e4f0	0.022203892
139	0x3e2b78df	0.16745327
140	0x3e0cff69	0.13769306
141	0xbd3f72a4	-0.04674019
142	0x3c645fca	0.0139388535
143	0x3e005edf	0.1253619
144	0x3d10da56	0.03536447
145	0x3d817182	0.06320478
146	0x3e031d06	0.1280404
147	0x3d3efdea	0.04662887
148	0x3e8be569	0.27323464
149	0x3cfda814	0.030963935
150	0x3da2bbef	0.07946002
151	0x3e28b0c5	0.16473682
152	0xbd1b7480	-0.0379529
153	0xbd7d0a07	-0.06177714
154	0xbdffb81d	-0.12486289
155	0xbdafec37	-0.08589976
156	0x3d5f5151	0.05452091
157	0xbe30b17a	-0.17255202
158	0xbd3b78b6	-0.045769416
159	0x3e10f215	0.14154847
160	0x3d5f84ce	0.05457001
161	0xbdc19e97	-0.09454077
162	0xbc260c6e	-0.010134799
163	0x3d9abbbf	0.07555341
164	0xbb879269	-0.0041373265
165	0xbbc49812	-0.0059995735
166	0x3daa8521	0.083261736
167	0x3d4b6bfd	0.049663533
168	0xbc4f00ad	-0.012634438
169	0xbd93a16a	-0.07208522
170	0xbd24c822	-0.040229924
171	0xbd2784b6	-0.040898047
172	0xbc6b7b0e	-0.0143726
173	0x3c0d2fef	0.008617385
174	0x3d1ec4dd	0.038761962
175	0x3e4fd50d	0.20296116
176	0xbda48a83	-0.080342315
177	0x3e0256a5	0.12728365
178	0xbcc51a12	-0.024060283
179	0xbe377103	-0.17914204
180	0x3de08ab8	0.109639585
181	0x3da274ea	0.07932456
182	0x3c756ea6	0.014979994
183	0xbda07991	-0.07835687
184	0xbd4fcad8	-0.050730556
185	0xbd8f7e00	-0.070064545
186	0xbd11615d	-0.035493243
187	0x3d10535c	0.035235748
188	0x3bc396d2	0.005968907
189	0x3e57800d	0.21044941
190	0xbd0eb5e4	-0.034841433
191	0xbc892ef8	-0.01674603
192	0x3e300b50	0.17191815
193	0x3d53c07a	0.05169723
194	0x3d2c9610	0.0421353
195	0x3d73483a	0.059395052
196	0x3d6b792c	0.057488605
197	0xbd876a0e	-0.06612025
198	0xbd49a06c	-0.049225256
199	0xbe0b156f	-0.13582395
200	0x3e0bc789	0.13650335
201	0xbde83fd3	-0.113402985
202	0x3dbb20d9	0.091371246
203	0x3cf82bd3	0.030294335
204	0x3d8e0726	0.06934957
205	0x3e536b3b	0.20646374
206	0x3dbc3b6e	0.09191023
207	0xbb0a6099	-0.0021114706
208	0x3caf92d1	0.021432312
209	0xbe6045b2	-0.21901587
210	0xbdbbddb6	-0.091731474
211	0x3dc0fea3	0.09423568
212	0xbd5e85f3	-0.054326963
213	0x3c951402	0.018198017
214	0x3d06d5eb	0.03291885
215	0x3e107e08	0.14110577
216	0x3cb94803	0.022617346
217	0x3e79ea68	0.24405825
218	0x3ab8ab2e	0.0014089101
219	0xbcc96895	-0.024586001
220	0x3dacec20	0.08443475
221	0xbb97e953	-0.0046359687
222	0x3e624206	0.22095498
223	0xbd2560a6	-0.040375374
224	0xbc8942b9	-0.016755449
225	0xbdb081ca	-0.08618505
226	0xbd4debff	-0.05027389
227	0x3da14377	0.07874196
228	0x3d8190b1	0.06326426
229	0xbe190f7d	-0.14947315
230	0x3cbe7b4c	0.023252152
231	0x3d843405	0.064552344
232	0x3d6c1707	0.057639148
233	0x3d1c4b42	0.03815771
234	0xbd89ece8	-0.067346394
235	0xbe27d144	-0.16388422
236	0xbd9212cf	-0.07132494
237	0x3e2d7561	0.16939308
238	0x3d38b6ec	0.045096323
239	0x3dc899c4	0.097949535
240	0xbdd0c8d6	-0.101945564
241	0x3e4e207c	0.2012958
242	0x3e24cfee	0.16094944
243	0x3d452da5	0.048139233
244	0x3e3fafee	0.18719456
245	0xba048eb1	-0.0005056663
246	0xbd084f71	-0.033278886
247	0xbe14b904	-0.14523703
248	0x3c928d0c	0.017889522
249	0x3da89d86	0.0823317
250	0x3d3d93f0	0.046283662
251	0x3c948be3	0.01813311
252	0x3d8bf840	0.06834459
253	0xbe1f0918	-0.15530813
254	0x3d92508e	0.07144271
255	0x3d94db7c	0.07268426

fully_connected_layers.3.bias f4 [32]
0	0xbde834b4	-0.11338177
1	0xbe15d4e9	-0.14632
2	0xbd246bc1	-0.040141825
3	0xbe56a8d0	-0.20962834
4	0xbdf29f00	-0.11846733
5	0xbe435354	-0.19074756
6	0xbddded7c	-0.10836312
7	0xbe50158c	-0.2032072
8	0xbe457a77	-0.19284998
9	0xbe1bc888	-0.15213215
10	0x3d37dab6	0.044886313
11	0xbcaff1c0	-0.02147758
12	0xbd9baf2b	-0.0760177
13	0xbdf5e4c6	-0.12006526
14	0xbcd56ea0	-0.026053727
15	0xbe6c8846	-0.23098859
16	0xbd0773a8	-0.033069283
17	0xbe343d96	-0.17601618
18	0xbe1522ac	-0.14564008
19	0xbe08781e	-0.13327071
20	0xbda6357c	-0.0811567
21	0x3da64be6	0.08119945
22	0xbe4e9213	-0.2017291
23	0xbe839d17	-0.25705788
24	0xbe8afc54	-0.27145636
25	0xbe062f75	-0.13104041
26	0x3d67c10c	0.05658059
27	0xbc4ad2ea	-0.012379387
28	0xbe08e045	-0.13366802
29	0x3d5283cf	0.051395234
30	0xbeebca28	-0.4605267
31	0xbe67687a	-0.22598448

fully_connected_layers.4.weight f4 [1, 58]
0	0xb6d8d090	-6.4615815e-06
1	0x3c63eec5	0.013911908
2	0x3a92ccb3	0.0011199921
3	0x3b34bce6	0.0027578413
4	0x3b89ae33	0.0042016744
5	0x3bd024df	0.0063520516
6	0xba8f7e26	-0.0010947629
7	0xbad490c5	-0.0016217461
8	0x388948b4	6.546211e-05
9	0xbc5b7d7a	-0.013396615
10	0x3a0a7ba6	0.0005282707
11	0x3aa7e532	0.0012809394
12	0x3bd9e88f	0.0066500376
13	0xbac6a264	-0.0015154597
14	0xb9c4c4d3	-0.0003753068
15	0xba620299	-0.0008621603
16	0xb8dfc0c8	-0.00010669377
17	0xbc0de1a7	-0.008659757
18	0x39cedc5c	0.00039455562
19	0xba4a9374	-0.00077276607
20	0xbbb005e7	-0.0053717974
21	0xb900bca4	-0.00012277305
22	0xb9354824	-0.0001728838
23	0x3aaa0732	0.0012972115
24	0xb68affc0	-4.1424937e-06
25	0xbb0a3860	-0.002109073
26	0xba3c359e	-0.00071796204
27	0x3a4247e1	0.00074112235
28	0x3b1c6d8a	0.0023869001
29	0xbdc06c9b	-0.09395715
30	0x3ac9a2a5	0.0015383555
31	0xb9ad3fcc	-0.00033044664
32	0xbb25fc9c	-0.002532757
33	0xbd90ca99	-0.070698924
34	0x3bf33e3d	0.007423191
35	0x3d8724a0	0.065987825
36	0x3dbb48f8	0.09144777
37	0xb7aa4a0c	-2.030006e-05
38	0x3a0a9c99	0.0005287617
39	0x3c92d774	0.017925002
40	0x3a2cc476	0.0006590554
41	0xbcc54716	-0.024081748
42	0x3a1a303b	0.00058818207
43	0xbd82b5cb	-0.063823305
44	0xb9c0ce46	-0.0003677478
45	0xbd201541	-0.03908277
46	0xbd2e9a74	-0.042627767
47	0x3945ae01	0.00018852206
48	0x399fc027	0.00030470008
49	0xbcade509	-0.021227377
50	0xbdae1ccd	-0.08501587
51	0x3aa9cb06	0.0012954182
52	0x3e259649	0.1617061
53	0x3d303c06	0.043025993
54	0x393b8f11	0.00017887006
55	0x3b8594b2	0.0040765638
56	0x3c2351af	0.009968205
57	0xbcd9a3a2	-0.026567284
